…
Configure(scheduler='cos', LR=0.025, eta_min=0.001, epochs=150, warmup=5, optim='SGD', decay=0.0005, momentum=0.9, nesterov=True, criterion='Softmax', batch_size=256, class_num=10, xshape=(1, 3, 32, 32))
||||||| cifar10    ||||||| Search-Loader-Num=5, batch size=256
||||||| cifar10    ||||||| Config=Configure(scheduler='cos', LR=0.025, eta_min=0.001, epochs=150, warmup=5, optim='SGD', decay=0.0005, momentum=0.9, nesterov=True, criterion='Softmax', batch_size=256, class_num=10, xshape=(1, 3, 32, 32))
search-model :
NASNetworkGDAS(
  NASNetworkGDAS(C=16, N=2, steps=4, multiplier=4, L=6)
  (stem): Sequential(
    (0): Conv2d(3, 48, kernel_size=(3, 3), stride=(1, 1), padding=(1, 1), bias=False)
    (1): BatchNorm2d(48, eps=1e-05, momentum=0.1, affine=True, track_running_stats=True)
  )
  (cells): ModuleList(
    (0): NASNetSearchCell(
      (preprocess0): ReLUConvBN(
        (op): Sequential(
          (0): ReLU()
          (1): Conv2d(48, 16, kernel_size=(1, 1), stride=(1, 1))
          (2): BatchNorm2d(16, eps=1e-05, momentum=0.1, affine=False, track_running_stats=True)
        )
      )
      (preprocess1): ReLUConvBN(
        (op): Sequential(
          (0): ReLU()
          (1): Conv2d(48, 16, kernel_size=(1, 1), stride=(1, 1))
          (2): BatchNorm2d(16, eps=1e-05, momentum=0.1, affine=False, track_running_stats=True)
        )
      )
      (_ops): ModuleList()
      (edges): ModuleDict(
        (0<-0): MixedOp(
          (_ops): ModuleList(
            (0): Zero(C_in=16, C_out=16, stride=1)
            (1): Identity()
            (2): DualSepConv(
              (op_a): SepConv(
                (op): Sequential(
                  (0): ReLU()
                  (1): Conv2d(16, 16, kernel_size=(3, 3), stride=(1, 1), padding=(1, 1), groups=16, bias=False)
                  (2): Conv2d(16, 16, kernel_size=(1, 1), stride=(1, 1))
                  (3): BatchNorm2d(16, eps=1e-05, momentum=0.1, affine=False, track_running_stats=True)
                )
              )
              (op_b): SepConv(
                (op): Sequential(
                  (0): ReLU()
                  (1): Conv2d(16, 16, kernel_size=(3, 3), stride=(1, 1), padding=(1, 1), groups=16, bias=False)
                  (2): Conv2d(16, 16, kernel_size=(1, 1), stride=(1, 1))
                  (3): BatchNorm2d(16, eps=1e-05, momentum=0.1, affine=False, track_running_stats=True)
                )
              )
            )
            (3): DualSepConv(
              (op_a): SepConv(
                (op): Sequential(
                  (0): ReLU()
                  (1): Conv2d(16, 16, kernel_size=(5, 5), stride=(1, 1), padding=(2, 2), groups=16, bias=False)
                  (2): Conv2d(16, 16, kernel_size=(1, 1), stride=(1, 1))
                  (3): BatchNorm2d(16, eps=1e-05, momentum=0.1, affine=False, track_running_stats=True)
                )
              )
              (op_b): SepConv(
                (op): Sequential(
                  (0): ReLU()
                  (1): Conv2d(16, 16, kernel_size=(5, 5), stride=(1, 1), padding=(2, 2), groups=16, bias=False)
                  (2): Conv2d(16, 16, kernel_size=(1, 1), stride=(1, 1))
                  (3): BatchNorm2d(16, eps=1e-05, momentum=0.1, affine=False, track_running_stats=True)
                )
              )
            )
            (4): SepConv(
              (op): Sequential(
                (0): ReLU()
                (1): Conv2d(16, 16, kernel_size=(3, 3), stride=(1, 1), padding=(2, 2), dilation=(2, 2), groups=16, bias=False)
                (2): Conv2d(16, 16, kernel_size=(1, 1), stride=(1, 1))
                (3): BatchNorm2d(16, eps=1e-05, momentum=0.1, affine=False, track_running_stats=True)
              )
            )
            (5): SepConv(
              (op): Sequential(
                (0): ReLU()
                (1): Conv2d(16, 16, kernel_size=(5, 5), stride=(1, 1), padding=(4, 4), dilation=(2, 2), groups=16, bias=False)
                (2): Conv2d(16, 16, kernel_size=(1, 1), stride=(1, 1))
                (3): BatchNorm2d(16, eps=1e-05, momentum=0.1, affine=False, track_running_stats=True)
              )
            )
            (6): POOLING(
              (op): AvgPool2d(kernel_size=3, stride=1, padding=1)
            )
            (7): POOLING(
              (op): MaxPool2d(kernel_size=3, stride=1, padding=1, dilation=1, ceil_mode=False)
            )
          )
        )
        (0<-1): MixedOp(
          (_ops): ModuleList(
            (0): Zero(C_in=16, C_out=16, stride=1)
            (1): Identity()
            (2): DualSepConv(
              (op_a): SepConv(
                (op): Sequential(
                  (0): ReLU()
                  (1): Conv2d(16, 16, kernel_size=(3, 3), stride=(1, 1), padding=(1, 1), groups=16, bias=False)
                  (2): Conv2d(16, 16, kernel_size=(1, 1), stride=(1, 1))
                  (3): BatchNorm2d(16, eps=1e-05, momentum=0.1, affine=False, track_running_stats=True)
                )
              )
              (op_b): SepConv(
                (op): Sequential(
                  (0): ReLU()
                  (1): Conv2d(16, 16, kernel_size=(3, 3), stride=(1, 1), padding=(1, 1), groups=16, bias=False)
                  (2): Conv2d(16, 16, kernel_size=(1, 1), stride=(1, 1))
                  (3): BatchNorm2d(16, eps=1e-05, momentum=0.1, affine=False, track_running_stats=True)
                )
              )
            )
            (3): DualSepConv(
              (op_a): SepConv(
                (op): Sequential(
                  (0): ReLU()
                  (1): Conv2d(16, 16, kernel_size=(5, 5), stride=(1, 1), padding=(2, 2), groups=16, bias=False)
                  (2): Conv2d(16, 16, kernel_size=(1, 1), stride=(1, 1))
                  (3): BatchNorm2d(16, eps=1e-05, momentum=0.1, affine=False, track_running_stats=True)
                )
              )
              (op_b): SepConv(
                (op): Sequential(
                  (0): ReLU()
                  (1): Conv2d(16, 16, kernel_size=(5, 5), stride=(1, 1), padding=(2, 2), groups=16, bias=False)
                  (2): Conv2d(16, 16, kernel_size=(1, 1), stride=(1, 1))
                  (3): BatchNorm2d(16, eps=1e-05, momentum=0.1, affine=False, track_running_stats=True)
                )
              )
            )
            (4): SepConv(
              (op): Sequential(
                (0): ReLU()
                (1): Conv2d(16, 16, kernel_size=(3, 3), stride=(1, 1), padding=(2, 2), dilation=(2, 2), groups=16, bias=False)
                (2): Conv2d(16, 16, kernel_size=(1, 1), stride=(1, 1))
                (3): BatchNorm2d(16, eps=1e-05, momentum=0.1, affine=False, track_running_stats=True)
              )
            )
            (5): SepConv(
              (op): Sequential(
                (0): ReLU()
                (1): Conv2d(16, 16, kernel_size=(5, 5), stride=(1, 1), padding=(4, 4), dilation=(2, 2), groups=16, bias=False)
                (2): Conv2d(16, 16, kernel_size=(1, 1), stride=(1, 1))
                (3): BatchNorm2d(16, eps=1e-05, momentum=0.1, affine=False, track_running_stats=True)
              )
            )
            (6): POOLING(
              (op): AvgPool2d(kernel_size=3, stride=1, padding=1)
            )
            (7): POOLING(
              (op): MaxPool2d(kernel_size=3, stride=1, padding=1, dilation=1, ceil_mode=False)
            )
          )
        )
        (1<-0): MixedOp(
          (_ops): ModuleList(
            (0): Zero(C_in=16, C_out=16, stride=1)
            (1): Identity()
            (2): DualSepConv(
              (op_a): SepConv(
                (op): Sequential(
                  (0): ReLU()
                  (1): Conv2d(16, 16, kernel_size=(3, 3), stride=(1, 1), padding=(1, 1), groups=16, bias=False)
                  (2): Conv2d(16, 16, kernel_size=(1, 1), stride=(1, 1))
                  (3): BatchNorm2d(16, eps=1e-05, momentum=0.1, affine=False, track_running_stats=True)
                )
              )
              (op_b): SepConv(
                (op): Sequential(
                  (0): ReLU()
                  (1): Conv2d(16, 16, kernel_size=(3, 3), stride=(1, 1), padding=(1, 1), groups=16, bias=False)
                  (2): Conv2d(16, 16, kernel_size=(1, 1), stride=(1, 1))
                  (3): BatchNorm2d(16, eps=1e-05, momentum=0.1, affine=False, track_running_stats=True)
                )
              )
            )
            (3): DualSepConv(
              (op_a): SepConv(
                (op): Sequential(
                  (0): ReLU()
                  (1): Conv2d(16, 16, kernel_size=(5, 5), stride=(1, 1), padding=(2, 2), groups=16, bias=False)
                  (2): Conv2d(16, 16, kernel_size=(1, 1), stride=(1, 1))
                  (3): BatchNorm2d(16, eps=1e-05, momentum=0.1, affine=False, track_running_stats=True)
                )
              )
              (op_b): SepConv(
                (op): Sequential(
                  (0): ReLU()
                  (1): Conv2d(16, 16, kernel_size=(5, 5), stride=(1, 1), padding=(2, 2), groups=16, bias=False)
                  (2): Conv2d(16, 16, kernel_size=(1, 1), stride=(1, 1))
                  (3): BatchNorm2d(16, eps=1e-05, momentum=0.1, affine=False, track_running_stats=True)
                )
              )
            )
            (4): SepConv(
              (op): Sequential(
                (0): ReLU()
                (1): Conv2d(16, 16, kernel_size=(3, 3), stride=(1, 1), padding=(2, 2), dilation=(2, 2), groups=16, bias=False)
                (2): Conv2d(16, 16, kernel_size=(1, 1), stride=(1, 1))
                (3): BatchNorm2d(16, eps=1e-05, momentum=0.1, affine=False, track_running_stats=True)
              )
            )
            (5): SepConv(
              (op): Sequential(
                (0): ReLU()
                (1): Conv2d(16, 16, kernel_size=(5, 5), stride=(1, 1), padding=(4, 4), dilation=(2, 2), groups=16, bias=False)
                (2): Conv2d(16, 16, kernel_size=(1, 1), stride=(1, 1))
                (3): BatchNorm2d(16, eps=1e-05, momentum=0.1, affine=False, track_running_stats=True)
              )
            )
            (6): POOLING(
              (op): AvgPool2d(kernel_size=3, stride=1, padding=1)
            )
            (7): POOLING(
              (op): MaxPool2d(kernel_size=3, stride=1, padding=1, dilation=1, ceil_mode=False)
            )
          )
        )
        (1<-1): MixedOp(
          (_ops): ModuleList(
            (0): Zero(C_in=16, C_out=16, stride=1)
            (1): Identity()
            (2): DualSepConv(
              (op_a): SepConv(
                (op): Sequential(
                  (0): ReLU()
                  (1): Conv2d(16, 16, kernel_size=(3, 3), stride=(1, 1), padding=(1, 1), groups=16, bias=False)
                  (2): Conv2d(16, 16, kernel_size=(1, 1), stride=(1, 1))
                  (3): BatchNorm2d(16, eps=1e-05, momentum=0.1, affine=False, track_running_stats=True)
                )
              )
              (op_b): SepConv(
                (op): Sequential(
                  (0): ReLU()
                  (1): Conv2d(16, 16, kernel_size=(3, 3), stride=(1, 1), padding=(1, 1), groups=16, bias=False)
                  (2): Conv2d(16, 16, kernel_size=(1, 1), stride=(1, 1))
                  (3): BatchNorm2d(16, eps=1e-05, momentum=0.1, affine=False, track_running_stats=True)
                )
              )
            )
            (3): DualSepConv(
              (op_a): SepConv(
                (op): Sequential(
                  (0): ReLU()
                  (1): Conv2d(16, 16, kernel_size=(5, 5), stride=(1, 1), padding=(2, 2), groups=16, bias=False)
                  (2): Conv2d(16, 16, kernel_size=(1, 1), stride=(1, 1))
                  (3): BatchNorm2d(16, eps=1e-05, momentum=0.1, affine=False, track_running_stats=True)
                )
              )
              (op_b): SepConv(
                (op): Sequential(
                  (0): ReLU()
                  (1): Conv2d(16, 16, kernel_size=(5, 5), stride=(1, 1), padding=(2, 2), groups=16, bias=False)
                  (2): Conv2d(16, 16, kernel_size=(1, 1), stride=(1, 1))
                  (3): BatchNorm2d(16, eps=1e-05, momentum=0.1, affine=False, track_running_stats=True)
                )
              )
            )
            (4): SepConv(
              (op): Sequential(
                (0): ReLU()
                (1): Conv2d(16, 16, kernel_size=(3, 3), stride=(1, 1), padding=(2, 2), dilation=(2, 2), groups=16, bias=False)
                (2): Conv2d(16, 16, kernel_size=(1, 1), stride=(1, 1))
                (3): BatchNorm2d(16, eps=1e-05, momentum=0.1, affine=False, track_running_stats=True)
              )
            )
            (5): SepConv(
              (op): Sequential(
                (0): ReLU()
                (1): Conv2d(16, 16, kernel_size=(5, 5), stride=(1, 1), padding=(4, 4), dilation=(2, 2), groups=16, bias=False)
                (2): Conv2d(16, 16, kernel_size=(1, 1), stride=(1, 1))
                (3): BatchNorm2d(16, eps=1e-05, momentum=0.1, affine=False, track_running_stats=True)
              )
            )
            (6): POOLING(
              (op): AvgPool2d(kernel_size=3, stride=1, padding=1)
            )
            (7): POOLING(
              (op): MaxPool2d(kernel_size=3, stride=1, padding=1, dilation=1, ceil_mode=False)
            )
          )
        )
        (1<-2): MixedOp(
          (_ops): ModuleList(
            (0): Zero(C_in=16, C_out=16, stride=1)
            (1): Identity()
            (2): DualSepConv(
              (op_a): SepConv(
                (op): Sequential(
                  (0): ReLU()
                  (1): Conv2d(16, 16, kernel_size=(3, 3), stride=(1, 1), padding=(1, 1), groups=16, bias=False)
                  (2): Conv2d(16, 16, kernel_size=(1, 1), stride=(1, 1))
                  (3): BatchNorm2d(16, eps=1e-05, momentum=0.1, affine=False, track_running_stats=True)
                )
              )
              (op_b): SepConv(
                (op): Sequential(
                  (0): ReLU()
                  (1): Conv2d(16, 16, kernel_size=(3, 3), stride=(1, 1), padding=(1, 1), groups=16, bias=False)
                  (2): Conv2d(16, 16, kernel_size=(1, 1), stride=(1, 1))
                  (3): BatchNorm2d(16, eps=1e-05, momentum=0.1, affine=False, track_running_stats=True)
                )
              )
            )
            (3): DualSepConv(
              (op_a): SepConv(
                (op): Sequential(
                  (0): ReLU()
                  (1): Conv2d(16, 16, kernel_size=(5, 5), stride=(1, 1), padding=(2, 2), groups=16, bias=False)
                  (2): Conv2d(16, 16, kernel_size=(1, 1), stride=(1, 1))
                  (3): BatchNorm2d(16, eps=1e-05, momentum=0.1, affine=False, track_running_stats=True)
                )
              )
              (op_b): SepConv(
                (op): Sequential(
                  (0): ReLU()
                  (1): Conv2d(16, 16, kernel_size=(5, 5), stride=(1, 1), padding=(2, 2), groups=16, bias=False)
                  (2): Conv2d(16, 16, kernel_size=(1, 1), stride=(1, 1))
                  (3): BatchNorm2d(16, eps=1e-05, momentum=0.1, affine=False, track_running_stats=True)
                )
              )
            )
            (4): SepConv(
              (op): Sequential(
                (0): ReLU()
                (1): Conv2d(16, 16, kernel_size=(3, 3), stride=(1, 1), padding=(2, 2), dilation=(2, 2), groups=16, bias=False)
                (2): Conv2d(16, 16, kernel_size=(1, 1), stride=(1, 1))
                (3): BatchNorm2d(16, eps=1e-05, momentum=0.1, affine=False, track_running_stats=True)
              )
            )
            (5): SepConv(
              (op): Sequential(
                (0): ReLU()
                (1): Conv2d(16, 16, kernel_size=(5, 5), stride=(1, 1), padding=(4, 4), dilation=(2, 2), groups=16, bias=False)
                (2): Conv2d(16, 16, kernel_size=(1, 1), stride=(1, 1))
                (3): BatchNorm2d(16, eps=1e-05, momentum=0.1, affine=False, track_running_stats=True)
              )
            )
            (6): POOLING(
              (op): AvgPool2d(kernel_size=3, stride=1, padding=1)
            )
            (7): POOLING(
              (op): MaxPool2d(kernel_size=3, stride=1, padding=1, dilation=1, ceil_mode=False)
            )
          )
        )
        (2<-0): MixedOp(
          (_ops): ModuleList(
            (0): Zero(C_in=16, C_out=16, stride=1)
            (1): Identity()
            (2): DualSepConv(
              (op_a): SepConv(
                (op): Sequential(
                  (0): ReLU()
                  (1): Conv2d(16, 16, kernel_size=(3, 3), stride=(1, 1), padding=(1, 1), groups=16, bias=False)
                  (2): Conv2d(16, 16, kernel_size=(1, 1), stride=(1, 1))
                  (3): BatchNorm2d(16, eps=1e-05, momentum=0.1, affine=False, track_running_stats=True)
                )
              )
              (op_b): SepConv(
                (op): Sequential(
                  (0): ReLU()
                  (1): Conv2d(16, 16, kernel_size=(3, 3), stride=(1, 1), padding=(1, 1), groups=16, bias=False)
                  (2): Conv2d(16, 16, kernel_size=(1, 1), stride=(1, 1))
                  (3): BatchNorm2d(16, eps=1e-05, momentum=0.1, affine=False, track_running_stats=True)
                )
              )
            )
            (3): DualSepConv(
              (op_a): SepConv(
                (op): Sequential(
                  (0): ReLU()
                  (1): Conv2d(16, 16, kernel_size=(5, 5), stride=(1, 1), padding=(2, 2), groups=16, bias=False)
                  (2): Conv2d(16, 16, kernel_size=(1, 1), stride=(1, 1))
                  (3): BatchNorm2d(16, eps=1e-05, momentum=0.1, affine=False, track_running_stats=True)
                )
              )
              (op_b): SepConv(
                (op): Sequential(
                  (0): ReLU()
                  (1): Conv2d(16, 16, kernel_size=(5, 5), stride=(1, 1), padding=(2, 2), groups=16, bias=False)
                  (2): Conv2d(16, 16, kernel_size=(1, 1), stride=(1, 1))
                  (3): BatchNorm2d(16, eps=1e-05, momentum=0.1, affine=False, track_running_stats=True)
                )
              )
            )
            (4): SepConv(
              (op): Sequential(
                (0): ReLU()
                (1): Conv2d(16, 16, kernel_size=(3, 3), stride=(1, 1), padding=(2, 2), dilation=(2, 2), groups=16, bias=False)
                (2): Conv2d(16, 16, kernel_size=(1, 1), stride=(1, 1))
                (3): BatchNorm2d(16, eps=1e-05, momentum=0.1, affine=False, track_running_stats=True)
              )
            )
            (5): SepConv(
              (op): Sequential(
                (0): ReLU()
                (1): Conv2d(16, 16, kernel_size=(5, 5), stride=(1, 1), padding=(4, 4), dilation=(2, 2), groups=16, bias=False)
                (2): Conv2d(16, 16, kernel_size=(1, 1), stride=(1, 1))
                (3): BatchNorm2d(16, eps=1e-05, momentum=0.1, affine=False, track_running_stats=True)
              )
            )
            (6): POOLING(
              (op): AvgPool2d(kernel_size=3, stride=1, padding=1)
            )
            (7): POOLING(
              (op): MaxPool2d(kernel_size=3, stride=1, padding=1, dilation=1, ceil_mode=False)
            )
          )
        )
        (2<-1): MixedOp(
          (_ops): ModuleList(
            (0): Zero(C_in=16, C_out=16, stride=1)
            (1): Identity()
            (2): DualSepConv(
              (op_a): SepConv(
                (op): Sequential(
                  (0): ReLU()
                  (1): Conv2d(16, 16, kernel_size=(3, 3), stride=(1, 1), padding=(1, 1), groups=16, bias=False)
                  (2): Conv2d(16, 16, kernel_size=(1, 1), stride=(1, 1))
                  (3): BatchNorm2d(16, eps=1e-05, momentum=0.1, affine=False, track_running_stats=True)
                )
              )
              (op_b): SepConv(
                (op): Sequential(
                  (0): ReLU()
                  (1): Conv2d(16, 16, kernel_size=(3, 3), stride=(1, 1), padding=(1, 1), groups=16, bias=False)
                  (2): Conv2d(16, 16, kernel_size=(1, 1), stride=(1, 1))
                  (3): BatchNorm2d(16, eps=1e-05, momentum=0.1, affine=False, track_running_stats=True)
                )
              )
            )
            (3): DualSepConv(
              (op_a): SepConv(
                (op): Sequential(
                  (0): ReLU()
                  (1): Conv2d(16, 16, kernel_size=(5, 5), stride=(1, 1), padding=(2, 2), groups=16, bias=False)
                  (2): Conv2d(16, 16, kernel_size=(1, 1), stride=(1, 1))
                  (3): BatchNorm2d(16, eps=1e-05, momentum=0.1, affine=False, track_running_stats=True)
                )
              )
              (op_b): SepConv(
                (op): Sequential(
                  (0): ReLU()
                  (1): Conv2d(16, 16, kernel_size=(5, 5), stride=(1, 1), padding=(2, 2), groups=16, bias=False)
                  (2): Conv2d(16, 16, kernel_size=(1, 1), stride=(1, 1))
                  (3): BatchNorm2d(16, eps=1e-05, momentum=0.1, affine=False, track_running_stats=True)
                )
              )
            )
            (4): SepConv(
              (op): Sequential(
                (0): ReLU()
                (1): Conv2d(16, 16, kernel_size=(3, 3), stride=(1, 1), padding=(2, 2), dilation=(2, 2), groups=16, bias=False)
                (2): Conv2d(16, 16, kernel_size=(1, 1), stride=(1, 1))
                (3): BatchNorm2d(16, eps=1e-05, momentum=0.1, affine=False, track_running_stats=True)
              )
            )
            (5): SepConv(
              (op): Sequential(
                (0): ReLU()
                (1): Conv2d(16, 16, kernel_size=(5, 5), stride=(1, 1), padding=(4, 4), dilation=(2, 2), groups=16, bias=False)
                (2): Conv2d(16, 16, kernel_size=(1, 1), stride=(1, 1))
                (3): BatchNorm2d(16, eps=1e-05, momentum=0.1, affine=False, track_running_stats=True)
              )
            )
            (6): POOLING(
              (op): AvgPool2d(kernel_size=3, stride=1, padding=1)
            )
            (7): POOLING(
              (op): MaxPool2d(kernel_size=3, stride=1, padding=1, dilation=1, ceil_mode=False)
            )
          )
        )
        (2<-2): MixedOp(
          (_ops): ModuleList(
            (0): Zero(C_in=16, C_out=16, stride=1)
            (1): Identity()
            (2): DualSepConv(
              (op_a): SepConv(
                (op): Sequential(
                  (0): ReLU()
                  (1): Conv2d(16, 16, kernel_size=(3, 3), stride=(1, 1), padding=(1, 1), groups=16, bias=False)
                  (2): Conv2d(16, 16, kernel_size=(1, 1), stride=(1, 1))
                  (3): BatchNorm2d(16, eps=1e-05, momentum=0.1, affine=False, track_running_stats=True)
                )
              )
              (op_b): SepConv(
                (op): Sequential(
                  (0): ReLU()
                  (1): Conv2d(16, 16, kernel_size=(3, 3), stride=(1, 1), padding=(1, 1), groups=16, bias=False)
                  (2): Conv2d(16, 16, kernel_size=(1, 1), stride=(1, 1))
                  (3): BatchNorm2d(16, eps=1e-05, momentum=0.1, affine=False, track_running_stats=True)
                )
              )
            )
            (3): DualSepConv(
              (op_a): SepConv(
                (op): Sequential(
                  (0): ReLU()
                  (1): Conv2d(16, 16, kernel_size=(5, 5), stride=(1, 1), padding=(2, 2), groups=16, bias=False)
                  (2): Conv2d(16, 16, kernel_size=(1, 1), stride=(1, 1))
                  (3): BatchNorm2d(16, eps=1e-05, momentum=0.1, affine=False, track_running_stats=True)
                )
              )
              (op_b): SepConv(
                (op): Sequential(
                  (0): ReLU()
                  (1): Conv2d(16, 16, kernel_size=(5, 5), stride=(1, 1), padding=(2, 2), groups=16, bias=False)
                  (2): Conv2d(16, 16, kernel_size=(1, 1), stride=(1, 1))
                  (3): BatchNorm2d(16, eps=1e-05, momentum=0.1, affine=False, track_running_stats=True)
                )
              )
            )
            (4): SepConv(
              (op): Sequential(
                (0): ReLU()
                (1): Conv2d(16, 16, kernel_size=(3, 3), stride=(1, 1), padding=(2, 2), dilation=(2, 2), groups=16, bias=False)
                (2): Conv2d(16, 16, kernel_size=(1, 1), stride=(1, 1))
                (3): BatchNorm2d(16, eps=1e-05, momentum=0.1, affine=False, track_running_stats=True)
              )
            )
            (5): SepConv(
              (op): Sequential(
                (0): ReLU()
                (1): Conv2d(16, 16, kernel_size=(5, 5), stride=(1, 1), padding=(4, 4), dilation=(2, 2), groups=16, bias=False)
                (2): Conv2d(16, 16, kernel_size=(1, 1), stride=(1, 1))
                (3): BatchNorm2d(16, eps=1e-05, momentum=0.1, affine=False, track_running_stats=True)
              )
            )
            (6): POOLING(
              (op): AvgPool2d(kernel_size=3, stride=1, padding=1)
            )
            (7): POOLING(
              (op): MaxPool2d(kernel_size=3, stride=1, padding=1, dilation=1, ceil_mode=False)
            )
          )
        )
        (2<-3): MixedOp(
          (_ops): ModuleList(
            (0): Zero(C_in=16, C_out=16, stride=1)
            (1): Identity()
            (2): DualSepConv(
              (op_a): SepConv(
                (op): Sequential(
                  (0): ReLU()
                  (1): Conv2d(16, 16, kernel_size=(3, 3), stride=(1, 1), padding=(1, 1), groups=16, bias=False)
                  (2): Conv2d(16, 16, kernel_size=(1, 1), stride=(1, 1))
                  (3): BatchNorm2d(16, eps=1e-05, momentum=0.1, affine=False, track_running_stats=True)
                )
              )
              (op_b): SepConv(
                (op): Sequential(
                  (0): ReLU()
                  (1): Conv2d(16, 16, kernel_size=(3, 3), stride=(1, 1), padding=(1, 1), groups=16, bias=False)
                  (2): Conv2d(16, 16, kernel_size=(1, 1), stride=(1, 1))
                  (3): BatchNorm2d(16, eps=1e-05, momentum=0.1, affine=False, track_running_stats=True)
                )
              )
            )
            (3): DualSepConv(
              (op_a): SepConv(
                (op): Sequential(
                  (0): ReLU()
                  (1): Conv2d(16, 16, kernel_size=(5, 5), stride=(1, 1), padding=(2, 2), groups=16, bias=False)
                  (2): Conv2d(16, 16, kernel_size=(1, 1), stride=(1, 1))
                  (3): BatchNorm2d(16, eps=1e-05, momentum=0.1, affine=False, track_running_stats=True)
                )
              )
              (op_b): SepConv(
                (op): Sequential(
                  (0): ReLU()
                  (1): Conv2d(16, 16, kernel_size=(5, 5), stride=(1, 1), padding=(2, 2), groups=16, bias=False)
                  (2): Conv2d(16, 16, kernel_size=(1, 1), stride=(1, 1))
                  (3): BatchNorm2d(16, eps=1e-05, momentum=0.1, affine=False, track_running_stats=True)
                )
              )
            )
            (4): SepConv(
              (op): Sequential(
                (0): ReLU()
                (1): Conv2d(16, 16, kernel_size=(3, 3), stride=(1, 1), padding=(2, 2), dilation=(2, 2), groups=16, bias=False)
                (2): Conv2d(16, 16, kernel_size=(1, 1), stride=(1, 1))
                (3): BatchNorm2d(16, eps=1e-05, momentum=0.1, affine=False, track_running_stats=True)
              )
            )
            (5): SepConv(
              (op): Sequential(
                (0): ReLU()
                (1): Conv2d(16, 16, kernel_size=(5, 5), stride=(1, 1), padding=(4, 4), dilation=(2, 2), groups=16, bias=False)
                (2): Conv2d(16, 16, kernel_size=(1, 1), stride=(1, 1))
                (3): BatchNorm2d(16, eps=1e-05, momentum=0.1, affine=False, track_running_stats=True)
              )
            )
            (6): POOLING(
              (op): AvgPool2d(kernel_size=3, stride=1, padding=1)
            )
            (7): POOLING(
              (op): MaxPool2d(kernel_size=3, stride=1, padding=1, dilation=1, ceil_mode=False)
            )
          )
        )
        (3<-0): MixedOp(
          (_ops): ModuleList(
            (0): Zero(C_in=16, C_out=16, stride=1)
            (1): Identity()
            (2): DualSepConv(
              (op_a): SepConv(
                (op): Sequential(
                  (0): ReLU()
                  (1): Conv2d(16, 16, kernel_size=(3, 3), stride=(1, 1), padding=(1, 1), groups=16, bias=False)
                  (2): Conv2d(16, 16, kernel_size=(1, 1), stride=(1, 1))
                  (3): BatchNorm2d(16, eps=1e-05, momentum=0.1, affine=False, track_running_stats=True)
                )
              )
              (op_b): SepConv(
                (op): Sequential(
                  (0): ReLU()
                  (1): Conv2d(16, 16, kernel_size=(3, 3), stride=(1, 1), padding=(1, 1), groups=16, bias=False)
                  (2): Conv2d(16, 16, kernel_size=(1, 1), stride=(1, 1))
                  (3): BatchNorm2d(16, eps=1e-05, momentum=0.1, affine=False, track_running_stats=True)
                )
              )
            )
            (3): DualSepConv(
              (op_a): SepConv(
                (op): Sequential(
                  (0): ReLU()
                  (1): Conv2d(16, 16, kernel_size=(5, 5), stride=(1, 1), padding=(2, 2), groups=16, bias=False)
                  (2): Conv2d(16, 16, kernel_size=(1, 1), stride=(1, 1))
                  (3): BatchNorm2d(16, eps=1e-05, momentum=0.1, affine=False, track_running_stats=True)
                )
              )
              (op_b): SepConv(
                (op): Sequential(
                  (0): ReLU()
                  (1): Conv2d(16, 16, kernel_size=(5, 5), stride=(1, 1), padding=(2, 2), groups=16, bias=False)
                  (2): Conv2d(16, 16, kernel_size=(1, 1), stride=(1, 1))
                  (3): BatchNorm2d(16, eps=1e-05, momentum=0.1, affine=False, track_running_stats=True)
                )
              )
            )
            (4): SepConv(
              (op): Sequential(
                (0): ReLU()
                (1): Conv2d(16, 16, kernel_size=(3, 3), stride=(1, 1), padding=(2, 2), dilation=(2, 2), groups=16, bias=False)
                (2): Conv2d(16, 16, kernel_size=(1, 1), stride=(1, 1))
                (3): BatchNorm2d(16, eps=1e-05, momentum=0.1, affine=False, track_running_stats=True)
              )
            )
            (5): SepConv(
              (op): Sequential(
                (0): ReLU()
                (1): Conv2d(16, 16, kernel_size=(5, 5), stride=(1, 1), padding=(4, 4), dilation=(2, 2), groups=16, bias=False)
                (2): Conv2d(16, 16, kernel_size=(1, 1), stride=(1, 1))
                (3): BatchNorm2d(16, eps=1e-05, momentum=0.1, affine=False, track_running_stats=True)
              )
            )
            (6): POOLING(
              (op): AvgPool2d(kernel_size=3, stride=1, padding=1)
            )
            (7): POOLING(
              (op): MaxPool2d(kernel_size=3, stride=1, padding=1, dilation=1, ceil_mode=False)
            )
          )
        )
        (3<-1): MixedOp(
          (_ops): ModuleList(
            (0): Zero(C_in=16, C_out=16, stride=1)
            (1): Identity()
            (2): DualSepConv(
              (op_a): SepConv(
                (op): Sequential(
                  (0): ReLU()
                  (1): Conv2d(16, 16, kernel_size=(3, 3), stride=(1, 1), padding=(1, 1), groups=16, bias=False)
                  (2): Conv2d(16, 16, kernel_size=(1, 1), stride=(1, 1))
                  (3): BatchNorm2d(16, eps=1e-05, momentum=0.1, affine=False, track_running_stats=True)
                )
              )
              (op_b): SepConv(
                (op): Sequential(
                  (0): ReLU()
                  (1): Conv2d(16, 16, kernel_size=(3, 3), stride=(1, 1), padding=(1, 1), groups=16, bias=False)
                  (2): Conv2d(16, 16, kernel_size=(1, 1), stride=(1, 1))
                  (3): BatchNorm2d(16, eps=1e-05, momentum=0.1, affine=False, track_running_stats=True)
                )
              )
            )
            (3): DualSepConv(
              (op_a): SepConv(
                (op): Sequential(
                  (0): ReLU()
                  (1): Conv2d(16, 16, kernel_size=(5, 5), stride=(1, 1), padding=(2, 2), groups=16, bias=False)
                  (2): Conv2d(16, 16, kernel_size=(1, 1), stride=(1, 1))
                  (3): BatchNorm2d(16, eps=1e-05, momentum=0.1, affine=False, track_running_stats=True)
                )
              )
              (op_b): SepConv(
                (op): Sequential(
                  (0): ReLU()
                  (1): Conv2d(16, 16, kernel_size=(5, 5), stride=(1, 1), padding=(2, 2), groups=16, bias=False)
                  (2): Conv2d(16, 16, kernel_size=(1, 1), stride=(1, 1))
                  (3): BatchNorm2d(16, eps=1e-05, momentum=0.1, affine=False, track_running_stats=True)
                )
              )
            )
            (4): SepConv(
              (op): Sequential(
                (0): ReLU()
                (1): Conv2d(16, 16, kernel_size=(3, 3), stride=(1, 1), padding=(2, 2), dilation=(2, 2), groups=16, bias=False)
                (2): Conv2d(16, 16, kernel_size=(1, 1), stride=(1, 1))
                (3): BatchNorm2d(16, eps=1e-05, momentum=0.1, affine=False, track_running_stats=True)
              )
            )
            (5): SepConv(
              (op): Sequential(
                (0): ReLU()
                (1): Conv2d(16, 16, kernel_size=(5, 5), stride=(1, 1), padding=(4, 4), dilation=(2, 2), groups=16, bias=False)
                (2): Conv2d(16, 16, kernel_size=(1, 1), stride=(1, 1))
                (3): BatchNorm2d(16, eps=1e-05, momentum=0.1, affine=False, track_running_stats=True)
              )
            )
            (6): POOLING(
              (op): AvgPool2d(kernel_size=3, stride=1, padding=1)
            )
            (7): POOLING(
              (op): MaxPool2d(kernel_size=3, stride=1, padding=1, dilation=1, ceil_mode=False)
            )
          )
        )
        (3<-2): MixedOp(
          (_ops): ModuleList(
            (0): Zero(C_in=16, C_out=16, stride=1)
            (1): Identity()
            (2): DualSepConv(
              (op_a): SepConv(
                (op): Sequential(
                  (0): ReLU()
                  (1): Conv2d(16, 16, kernel_size=(3, 3), stride=(1, 1), padding=(1, 1), groups=16, bias=False)
                  (2): Conv2d(16, 16, kernel_size=(1, 1), stride=(1, 1))
                  (3): BatchNorm2d(16, eps=1e-05, momentum=0.1, affine=False, track_running_stats=True)
                )
              )
              (op_b): SepConv(
                (op): Sequential(
                  (0): ReLU()
                  (1): Conv2d(16, 16, kernel_size=(3, 3), stride=(1, 1), padding=(1, 1), groups=16, bias=False)
                  (2): Conv2d(16, 16, kernel_size=(1, 1), stride=(1, 1))
                  (3): BatchNorm2d(16, eps=1e-05, momentum=0.1, affine=False, track_running_stats=True)
                )
              )
            )
            (3): DualSepConv(
              (op_a): SepConv(
                (op): Sequential(
                  (0): ReLU()
                  (1): Conv2d(16, 16, kernel_size=(5, 5), stride=(1, 1), padding=(2, 2), groups=16, bias=False)
                  (2): Conv2d(16, 16, kernel_size=(1, 1), stride=(1, 1))
                  (3): BatchNorm2d(16, eps=1e-05, momentum=0.1, affine=False, track_running_stats=True)
                )
              )
              (op_b): SepConv(
                (op): Sequential(
                  (0): ReLU()
                  (1): Conv2d(16, 16, kernel_size=(5, 5), stride=(1, 1), padding=(2, 2), groups=16, bias=False)
                  (2): Conv2d(16, 16, kernel_size=(1, 1), stride=(1, 1))
                  (3): BatchNorm2d(16, eps=1e-05, momentum=0.1, affine=False, track_running_stats=True)
                )
              )
            )
            (4): SepConv(
              (op): Sequential(
                (0): ReLU()
                (1): Conv2d(16, 16, kernel_size=(3, 3), stride=(1, 1), padding=(2, 2), dilation=(2, 2), groups=16, bias=False)
                (2): Conv2d(16, 16, kernel_size=(1, 1), stride=(1, 1))
                (3): BatchNorm2d(16, eps=1e-05, momentum=0.1, affine=False, track_running_stats=True)
              )
            )
            (5): SepConv(
              (op): Sequential(
                (0): ReLU()
                (1): Conv2d(16, 16, kernel_size=(5, 5), stride=(1, 1), padding=(4, 4), dilation=(2, 2), groups=16, bias=False)
                (2): Conv2d(16, 16, kernel_size=(1, 1), stride=(1, 1))
                (3): BatchNorm2d(16, eps=1e-05, momentum=0.1, affine=False, track_running_stats=True)
              )
            )
            (6): POOLING(
              (op): AvgPool2d(kernel_size=3, stride=1, padding=1)
            )
            (7): POOLING(
              (op): MaxPool2d(kernel_size=3, stride=1, padding=1, dilation=1, ceil_mode=False)
            )
          )
        )
        (3<-3): MixedOp(
          (_ops): ModuleList(
            (0): Zero(C_in=16, C_out=16, stride=1)
            (1): Identity()
            (2): DualSepConv(
              (op_a): SepConv(
                (op): Sequential(
                  (0): ReLU()
                  (1): Conv2d(16, 16, kernel_size=(3, 3), stride=(1, 1), padding=(1, 1), groups=16, bias=False)
                  (2): Conv2d(16, 16, kernel_size=(1, 1), stride=(1, 1))
                  (3): BatchNorm2d(16, eps=1e-05, momentum=0.1, affine=False, track_running_stats=True)
                )
              )
              (op_b): SepConv(
                (op): Sequential(
                  (0): ReLU()
                  (1): Conv2d(16, 16, kernel_size=(3, 3), stride=(1, 1), padding=(1, 1), groups=16, bias=False)
                  (2): Conv2d(16, 16, kernel_size=(1, 1), stride=(1, 1))
                  (3): BatchNorm2d(16, eps=1e-05, momentum=0.1, affine=False, track_running_stats=True)
                )
              )
            )
            (3): DualSepConv(
              (op_a): SepConv(
                (op): Sequential(
                  (0): ReLU()
                  (1): Conv2d(16, 16, kernel_size=(5, 5), stride=(1, 1), padding=(2, 2), groups=16, bias=False)
                  (2): Conv2d(16, 16, kernel_size=(1, 1), stride=(1, 1))
                  (3): BatchNorm2d(16, eps=1e-05, momentum=0.1, affine=False, track_running_stats=True)
                )
              )
              (op_b): SepConv(
                (op): Sequential(
                  (0): ReLU()
                  (1): Conv2d(16, 16, kernel_size=(5, 5), stride=(1, 1), padding=(2, 2), groups=16, bias=False)
                  (2): Conv2d(16, 16, kernel_size=(1, 1), stride=(1, 1))
                  (3): BatchNorm2d(16, eps=1e-05, momentum=0.1, affine=False, track_running_stats=True)
                )
              )
            )
            (4): SepConv(
              (op): Sequential(
                (0): ReLU()
                (1): Conv2d(16, 16, kernel_size=(3, 3), stride=(1, 1), padding=(2, 2), dilation=(2, 2), groups=16, bias=False)
                (2): Conv2d(16, 16, kernel_size=(1, 1), stride=(1, 1))
                (3): BatchNorm2d(16, eps=1e-05, momentum=0.1, affine=False, track_running_stats=True)
              )
            )
            (5): SepConv(
              (op): Sequential(
                (0): ReLU()
                (1): Conv2d(16, 16, kernel_size=(5, 5), stride=(1, 1), padding=(4, 4), dilation=(2, 2), groups=16, bias=False)
                (2): Conv2d(16, 16, kernel_size=(1, 1), stride=(1, 1))
                (3): BatchNorm2d(16, eps=1e-05, momentum=0.1, affine=False, track_running_stats=True)
              )
            )
            (6): POOLING(
              (op): AvgPool2d(kernel_size=3, stride=1, padding=1)
            )
            (7): POOLING(
              (op): MaxPool2d(kernel_size=3, stride=1, padding=1, dilation=1, ceil_mode=False)
            )
          )
        )
        (3<-4): MixedOp(
          (_ops): ModuleList(
            (0): Zero(C_in=16, C_out=16, stride=1)
            (1): Identity()
            (2): DualSepConv(
              (op_a): SepConv(
                (op): Sequential(
                  (0): ReLU()
                  (1): Conv2d(16, 16, kernel_size=(3, 3), stride=(1, 1), padding=(1, 1), groups=16, bias=False)
                  (2): Conv2d(16, 16, kernel_size=(1, 1), stride=(1, 1))
                  (3): BatchNorm2d(16, eps=1e-05, momentum=0.1, affine=False, track_running_stats=True)
                )
              )
              (op_b): SepConv(
                (op): Sequential(
                  (0): ReLU()
                  (1): Conv2d(16, 16, kernel_size=(3, 3), stride=(1, 1), padding=(1, 1), groups=16, bias=False)
                  (2): Conv2d(16, 16, kernel_size=(1, 1), stride=(1, 1))
                  (3): BatchNorm2d(16, eps=1e-05, momentum=0.1, affine=False, track_running_stats=True)
                )
              )
            )
            (3): DualSepConv(
              (op_a): SepConv(
                (op): Sequential(
                  (0): ReLU()
                  (1): Conv2d(16, 16, kernel_size=(5, 5), stride=(1, 1), padding=(2, 2), groups=16, bias=False)
                  (2): Conv2d(16, 16, kernel_size=(1, 1), stride=(1, 1))
                  (3): BatchNorm2d(16, eps=1e-05, momentum=0.1, affine=False, track_running_stats=True)
                )
              )
              (op_b): SepConv(
                (op): Sequential(
                  (0): ReLU()
                  (1): Conv2d(16, 16, kernel_size=(5, 5), stride=(1, 1), padding=(2, 2), groups=16, bias=False)
                  (2): Conv2d(16, 16, kernel_size=(1, 1), stride=(1, 1))
                  (3): BatchNorm2d(16, eps=1e-05, momentum=0.1, affine=False, track_running_stats=True)
                )
              )
            )
            (4): SepConv(
              (op): Sequential(
                (0): ReLU()
                (1): Conv2d(16, 16, kernel_size=(3, 3), stride=(1, 1), padding=(2, 2), dilation=(2, 2), groups=16, bias=False)
                (2): Conv2d(16, 16, kernel_size=(1, 1), stride=(1, 1))
                (3): BatchNorm2d(16, eps=1e-05, momentum=0.1, affine=False, track_running_stats=True)
              )
            )
            (5): SepConv(
              (op): Sequential(
                (0): ReLU()
                (1): Conv2d(16, 16, kernel_size=(5, 5), stride=(1, 1), padding=(4, 4), dilation=(2, 2), groups=16, bias=False)
                (2): Conv2d(16, 16, kernel_size=(1, 1), stride=(1, 1))
                (3): BatchNorm2d(16, eps=1e-05, momentum=0.1, affine=False, track_running_stats=True)
              )
            )
            (6): POOLING(
              (op): AvgPool2d(kernel_size=3, stride=1, padding=1)
            )
            (7): POOLING(
              (op): MaxPool2d(kernel_size=3, stride=1, padding=1, dilation=1, ceil_mode=False)
            )
          )
        )
      )
    )
    (1): NASNetSearchCell(
      (preprocess0): ReLUConvBN(
        (op): Sequential(
          (0): ReLU()
          (1): Conv2d(48, 16, kernel_size=(1, 1), stride=(1, 1))
          (2): BatchNorm2d(16, eps=1e-05, momentum=0.1, affine=False, track_running_stats=True)
        )
      )
      (preprocess1): ReLUConvBN(
        (op): Sequential(
          (0): ReLU()
          (1): Conv2d(64, 16, kernel_size=(1, 1), stride=(1, 1))
          (2): BatchNorm2d(16, eps=1e-05, momentum=0.1, affine=False, track_running_stats=True)
        )
      )
      (_ops): ModuleList()
      (edges): ModuleDict(
        (0<-0): MixedOp(
          (_ops): ModuleList(
            (0): Zero(C_in=16, C_out=16, stride=1)
            (1): Identity()
            (2): DualSepConv(
              (op_a): SepConv(
                (op): Sequential(
                  (0): ReLU()
                  (1): Conv2d(16, 16, kernel_size=(3, 3), stride=(1, 1), padding=(1, 1), groups=16, bias=False)
                  (2): Conv2d(16, 16, kernel_size=(1, 1), stride=(1, 1))
                  (3): BatchNorm2d(16, eps=1e-05, momentum=0.1, affine=False, track_running_stats=True)
                )
              )
              (op_b): SepConv(
                (op): Sequential(
                  (0): ReLU()
                  (1): Conv2d(16, 16, kernel_size=(3, 3), stride=(1, 1), padding=(1, 1), groups=16, bias=False)
                  (2): Conv2d(16, 16, kernel_size=(1, 1), stride=(1, 1))
                  (3): BatchNorm2d(16, eps=1e-05, momentum=0.1, affine=False, track_running_stats=True)
                )
              )
            )
            (3): DualSepConv(
              (op_a): SepConv(
                (op): Sequential(
                  (0): ReLU()
                  (1): Conv2d(16, 16, kernel_size=(5, 5), stride=(1, 1), padding=(2, 2), groups=16, bias=False)
                  (2): Conv2d(16, 16, kernel_size=(1, 1), stride=(1, 1))
                  (3): BatchNorm2d(16, eps=1e-05, momentum=0.1, affine=False, track_running_stats=True)
                )
              )
              (op_b): SepConv(
                (op): Sequential(
                  (0): ReLU()
                  (1): Conv2d(16, 16, kernel_size=(5, 5), stride=(1, 1), padding=(2, 2), groups=16, bias=False)
                  (2): Conv2d(16, 16, kernel_size=(1, 1), stride=(1, 1))
                  (3): BatchNorm2d(16, eps=1e-05, momentum=0.1, affine=False, track_running_stats=True)
                )
              )
            )
            (4): SepConv(
              (op): Sequential(
                (0): ReLU()
                (1): Conv2d(16, 16, kernel_size=(3, 3), stride=(1, 1), padding=(2, 2), dilation=(2, 2), groups=16, bias=False)
                (2): Conv2d(16, 16, kernel_size=(1, 1), stride=(1, 1))
                (3): BatchNorm2d(16, eps=1e-05, momentum=0.1, affine=False, track_running_stats=True)
              )
            )
            (5): SepConv(
              (op): Sequential(
                (0): ReLU()
                (1): Conv2d(16, 16, kernel_size=(5, 5), stride=(1, 1), padding=(4, 4), dilation=(2, 2), groups=16, bias=False)
                (2): Conv2d(16, 16, kernel_size=(1, 1), stride=(1, 1))
                (3): BatchNorm2d(16, eps=1e-05, momentum=0.1, affine=False, track_running_stats=True)
              )
            )
            (6): POOLING(
              (op): AvgPool2d(kernel_size=3, stride=1, padding=1)
            )
            (7): POOLING(
              (op): MaxPool2d(kernel_size=3, stride=1, padding=1, dilation=1, ceil_mode=False)
            )
          )
        )
        (0<-1): MixedOp(
          (_ops): ModuleList(
            (0): Zero(C_in=16, C_out=16, stride=1)
            (1): Identity()
            (2): DualSepConv(
              (op_a): SepConv(
                (op): Sequential(
                  (0): ReLU()
                  (1): Conv2d(16, 16, kernel_size=(3, 3), stride=(1, 1), padding=(1, 1), groups=16, bias=False)
                  (2): Conv2d(16, 16, kernel_size=(1, 1), stride=(1, 1))
                  (3): BatchNorm2d(16, eps=1e-05, momentum=0.1, affine=False, track_running_stats=True)
                )
              )
              (op_b): SepConv(
                (op): Sequential(
                  (0): ReLU()
                  (1): Conv2d(16, 16, kernel_size=(3, 3), stride=(1, 1), padding=(1, 1), groups=16, bias=False)
                  (2): Conv2d(16, 16, kernel_size=(1, 1), stride=(1, 1))
                  (3): BatchNorm2d(16, eps=1e-05, momentum=0.1, affine=False, track_running_stats=True)
                )
              )
            )
            (3): DualSepConv(
              (op_a): SepConv(
                (op): Sequential(
                  (0): ReLU()
                  (1): Conv2d(16, 16, kernel_size=(5, 5), stride=(1, 1), padding=(2, 2), groups=16, bias=False)
                  (2): Conv2d(16, 16, kernel_size=(1, 1), stride=(1, 1))
                  (3): BatchNorm2d(16, eps=1e-05, momentum=0.1, affine=False, track_running_stats=True)
                )
              )
              (op_b): SepConv(
                (op): Sequential(
                  (0): ReLU()
                  (1): Conv2d(16, 16, kernel_size=(5, 5), stride=(1, 1), padding=(2, 2), groups=16, bias=False)
                  (2): Conv2d(16, 16, kernel_size=(1, 1), stride=(1, 1))
                  (3): BatchNorm2d(16, eps=1e-05, momentum=0.1, affine=False, track_running_stats=True)
                )
              )
            )
            (4): SepConv(
              (op): Sequential(
                (0): ReLU()
                (1): Conv2d(16, 16, kernel_size=(3, 3), stride=(1, 1), padding=(2, 2), dilation=(2, 2), groups=16, bias=False)
                (2): Conv2d(16, 16, kernel_size=(1, 1), stride=(1, 1))
                (3): BatchNorm2d(16, eps=1e-05, momentum=0.1, affine=False, track_running_stats=True)
              )
            )
            (5): SepConv(
              (op): Sequential(
                (0): ReLU()
                (1): Conv2d(16, 16, kernel_size=(5, 5), stride=(1, 1), padding=(4, 4), dilation=(2, 2), groups=16, bias=False)
                (2): Conv2d(16, 16, kernel_size=(1, 1), stride=(1, 1))
                (3): BatchNorm2d(16, eps=1e-05, momentum=0.1, affine=False, track_running_stats=True)
              )
            )
            (6): POOLING(
              (op): AvgPool2d(kernel_size=3, stride=1, padding=1)
            )
            (7): POOLING(
              (op): MaxPool2d(kernel_size=3, stride=1, padding=1, dilation=1, ceil_mode=False)
            )
          )
        )
        (1<-0): MixedOp(
          (_ops): ModuleList(
            (0): Zero(C_in=16, C_out=16, stride=1)
            (1): Identity()
            (2): DualSepConv(
              (op_a): SepConv(
                (op): Sequential(
                  (0): ReLU()
                  (1): Conv2d(16, 16, kernel_size=(3, 3), stride=(1, 1), padding=(1, 1), groups=16, bias=False)
                  (2): Conv2d(16, 16, kernel_size=(1, 1), stride=(1, 1))
                  (3): BatchNorm2d(16, eps=1e-05, momentum=0.1, affine=False, track_running_stats=True)
                )
              )
              (op_b): SepConv(
                (op): Sequential(
                  (0): ReLU()
                  (1): Conv2d(16, 16, kernel_size=(3, 3), stride=(1, 1), padding=(1, 1), groups=16, bias=False)
                  (2): Conv2d(16, 16, kernel_size=(1, 1), stride=(1, 1))
                  (3): BatchNorm2d(16, eps=1e-05, momentum=0.1, affine=False, track_running_stats=True)
                )
              )
            )
            (3): DualSepConv(
              (op_a): SepConv(
                (op): Sequential(
                  (0): ReLU()
                  (1): Conv2d(16, 16, kernel_size=(5, 5), stride=(1, 1), padding=(2, 2), groups=16, bias=False)
                  (2): Conv2d(16, 16, kernel_size=(1, 1), stride=(1, 1))
                  (3): BatchNorm2d(16, eps=1e-05, momentum=0.1, affine=False, track_running_stats=True)
                )
              )
              (op_b): SepConv(
                (op): Sequential(
                  (0): ReLU()
                  (1): Conv2d(16, 16, kernel_size=(5, 5), stride=(1, 1), padding=(2, 2), groups=16, bias=False)
                  (2): Conv2d(16, 16, kernel_size=(1, 1), stride=(1, 1))
                  (3): BatchNorm2d(16, eps=1e-05, momentum=0.1, affine=False, track_running_stats=True)
                )
              )
            )
            (4): SepConv(
              (op): Sequential(
                (0): ReLU()
                (1): Conv2d(16, 16, kernel_size=(3, 3), stride=(1, 1), padding=(2, 2), dilation=(2, 2), groups=16, bias=False)
                (2): Conv2d(16, 16, kernel_size=(1, 1), stride=(1, 1))
                (3): BatchNorm2d(16, eps=1e-05, momentum=0.1, affine=False, track_running_stats=True)
              )
            )
            (5): SepConv(
              (op): Sequential(
                (0): ReLU()
                (1): Conv2d(16, 16, kernel_size=(5, 5), stride=(1, 1), padding=(4, 4), dilation=(2, 2), groups=16, bias=False)
                (2): Conv2d(16, 16, kernel_size=(1, 1), stride=(1, 1))
                (3): BatchNorm2d(16, eps=1e-05, momentum=0.1, affine=False, track_running_stats=True)
              )
            )
            (6): POOLING(
              (op): AvgPool2d(kernel_size=3, stride=1, padding=1)
            )
            (7): POOLING(
              (op): MaxPool2d(kernel_size=3, stride=1, padding=1, dilation=1, ceil_mode=False)
            )
          )
        )
        (1<-1): MixedOp(
          (_ops): ModuleList(
            (0): Zero(C_in=16, C_out=16, stride=1)
            (1): Identity()
            (2): DualSepConv(
              (op_a): SepConv(
                (op): Sequential(
                  (0): ReLU()
                  (1): Conv2d(16, 16, kernel_size=(3, 3), stride=(1, 1), padding=(1, 1), groups=16, bias=False)
                  (2): Conv2d(16, 16, kernel_size=(1, 1), stride=(1, 1))
                  (3): BatchNorm2d(16, eps=1e-05, momentum=0.1, affine=False, track_running_stats=True)
                )
              )
              (op_b): SepConv(
                (op): Sequential(
                  (0): ReLU()
                  (1): Conv2d(16, 16, kernel_size=(3, 3), stride=(1, 1), padding=(1, 1), groups=16, bias=False)
                  (2): Conv2d(16, 16, kernel_size=(1, 1), stride=(1, 1))
                  (3): BatchNorm2d(16, eps=1e-05, momentum=0.1, affine=False, track_running_stats=True)
                )
              )
            )
            (3): DualSepConv(
              (op_a): SepConv(
                (op): Sequential(
                  (0): ReLU()
                  (1): Conv2d(16, 16, kernel_size=(5, 5), stride=(1, 1), padding=(2, 2), groups=16, bias=False)
                  (2): Conv2d(16, 16, kernel_size=(1, 1), stride=(1, 1))
                  (3): BatchNorm2d(16, eps=1e-05, momentum=0.1, affine=False, track_running_stats=True)
                )
              )
              (op_b): SepConv(
                (op): Sequential(
                  (0): ReLU()
                  (1): Conv2d(16, 16, kernel_size=(5, 5), stride=(1, 1), padding=(2, 2), groups=16, bias=False)
                  (2): Conv2d(16, 16, kernel_size=(1, 1), stride=(1, 1))
                  (3): BatchNorm2d(16, eps=1e-05, momentum=0.1, affine=False, track_running_stats=True)
                )
              )
            )
            (4): SepConv(
              (op): Sequential(
                (0): ReLU()
                (1): Conv2d(16, 16, kernel_size=(3, 3), stride=(1, 1), padding=(2, 2), dilation=(2, 2), groups=16, bias=False)
                (2): Conv2d(16, 16, kernel_size=(1, 1), stride=(1, 1))
                (3): BatchNorm2d(16, eps=1e-05, momentum=0.1, affine=False, track_running_stats=True)
              )
            )
            (5): SepConv(
              (op): Sequential(
                (0): ReLU()
                (1): Conv2d(16, 16, kernel_size=(5, 5), stride=(1, 1), padding=(4, 4), dilation=(2, 2), groups=16, bias=False)
                (2): Conv2d(16, 16, kernel_size=(1, 1), stride=(1, 1))
                (3): BatchNorm2d(16, eps=1e-05, momentum=0.1, affine=False, track_running_stats=True)
              )
            )
            (6): POOLING(
              (op): AvgPool2d(kernel_size=3, stride=1, padding=1)
            )
            (7): POOLING(
              (op): MaxPool2d(kernel_size=3, stride=1, padding=1, dilation=1, ceil_mode=False)
            )
          )
        )
        (1<-2): MixedOp(
          (_ops): ModuleList(
            (0): Zero(C_in=16, C_out=16, stride=1)
            (1): Identity()
            (2): DualSepConv(
              (op_a): SepConv(
                (op): Sequential(
                  (0): ReLU()
                  (1): Conv2d(16, 16, kernel_size=(3, 3), stride=(1, 1), padding=(1, 1), groups=16, bias=False)
                  (2): Conv2d(16, 16, kernel_size=(1, 1), stride=(1, 1))
                  (3): BatchNorm2d(16, eps=1e-05, momentum=0.1, affine=False, track_running_stats=True)
                )
              )
              (op_b): SepConv(
                (op): Sequential(
                  (0): ReLU()
                  (1): Conv2d(16, 16, kernel_size=(3, 3), stride=(1, 1), padding=(1, 1), groups=16, bias=False)
                  (2): Conv2d(16, 16, kernel_size=(1, 1), stride=(1, 1))
                  (3): BatchNorm2d(16, eps=1e-05, momentum=0.1, affine=False, track_running_stats=True)
                )
              )
            )
            (3): DualSepConv(
              (op_a): SepConv(
                (op): Sequential(
                  (0): ReLU()
                  (1): Conv2d(16, 16, kernel_size=(5, 5), stride=(1, 1), padding=(2, 2), groups=16, bias=False)
                  (2): Conv2d(16, 16, kernel_size=(1, 1), stride=(1, 1))
                  (3): BatchNorm2d(16, eps=1e-05, momentum=0.1, affine=False, track_running_stats=True)
                )
              )
              (op_b): SepConv(
                (op): Sequential(
                  (0): ReLU()
                  (1): Conv2d(16, 16, kernel_size=(5, 5), stride=(1, 1), padding=(2, 2), groups=16, bias=False)
                  (2): Conv2d(16, 16, kernel_size=(1, 1), stride=(1, 1))
                  (3): BatchNorm2d(16, eps=1e-05, momentum=0.1, affine=False, track_running_stats=True)
                )
              )
            )
            (4): SepConv(
              (op): Sequential(
                (0): ReLU()
                (1): Conv2d(16, 16, kernel_size=(3, 3), stride=(1, 1), padding=(2, 2), dilation=(2, 2), groups=16, bias=False)
                (2): Conv2d(16, 16, kernel_size=(1, 1), stride=(1, 1))
                (3): BatchNorm2d(16, eps=1e-05, momentum=0.1, affine=False, track_running_stats=True)
              )
            )
            (5): SepConv(
              (op): Sequential(
                (0): ReLU()
                (1): Conv2d(16, 16, kernel_size=(5, 5), stride=(1, 1), padding=(4, 4), dilation=(2, 2), groups=16, bias=False)
                (2): Conv2d(16, 16, kernel_size=(1, 1), stride=(1, 1))
                (3): BatchNorm2d(16, eps=1e-05, momentum=0.1, affine=False, track_running_stats=True)
              )
            )
            (6): POOLING(
              (op): AvgPool2d(kernel_size=3, stride=1, padding=1)
            )
            (7): POOLING(
              (op): MaxPool2d(kernel_size=3, stride=1, padding=1, dilation=1, ceil_mode=False)
            )
          )
        )
        (2<-0): MixedOp(
          (_ops): ModuleList(
            (0): Zero(C_in=16, C_out=16, stride=1)
            (1): Identity()
            (2): DualSepConv(
              (op_a): SepConv(
                (op): Sequential(
                  (0): ReLU()
                  (1): Conv2d(16, 16, kernel_size=(3, 3), stride=(1, 1), padding=(1, 1), groups=16, bias=False)
                  (2): Conv2d(16, 16, kernel_size=(1, 1), stride=(1, 1))
                  (3): BatchNorm2d(16, eps=1e-05, momentum=0.1, affine=False, track_running_stats=True)
                )
              )
              (op_b): SepConv(
                (op): Sequential(
                  (0): ReLU()
                  (1): Conv2d(16, 16, kernel_size=(3, 3), stride=(1, 1), padding=(1, 1), groups=16, bias=False)
                  (2): Conv2d(16, 16, kernel_size=(1, 1), stride=(1, 1))
                  (3): BatchNorm2d(16, eps=1e-05, momentum=0.1, affine=False, track_running_stats=True)
                )
              )
            )
            (3): DualSepConv(
              (op_a): SepConv(
                (op): Sequential(
                  (0): ReLU()
                  (1): Conv2d(16, 16, kernel_size=(5, 5), stride=(1, 1), padding=(2, 2), groups=16, bias=False)
                  (2): Conv2d(16, 16, kernel_size=(1, 1), stride=(1, 1))
                  (3): BatchNorm2d(16, eps=1e-05, momentum=0.1, affine=False, track_running_stats=True)
                )
              )
              (op_b): SepConv(
                (op): Sequential(
                  (0): ReLU()
                  (1): Conv2d(16, 16, kernel_size=(5, 5), stride=(1, 1), padding=(2, 2), groups=16, bias=False)
                  (2): Conv2d(16, 16, kernel_size=(1, 1), stride=(1, 1))
                  (3): BatchNorm2d(16, eps=1e-05, momentum=0.1, affine=False, track_running_stats=True)
                )
              )
            )
            (4): SepConv(
              (op): Sequential(
                (0): ReLU()
                (1): Conv2d(16, 16, kernel_size=(3, 3), stride=(1, 1), padding=(2, 2), dilation=(2, 2), groups=16, bias=False)
                (2): Conv2d(16, 16, kernel_size=(1, 1), stride=(1, 1))
                (3): BatchNorm2d(16, eps=1e-05, momentum=0.1, affine=False, track_running_stats=True)
              )
            )
            (5): SepConv(
              (op): Sequential(
                (0): ReLU()
                (1): Conv2d(16, 16, kernel_size=(5, 5), stride=(1, 1), padding=(4, 4), dilation=(2, 2), groups=16, bias=False)
                (2): Conv2d(16, 16, kernel_size=(1, 1), stride=(1, 1))
                (3): BatchNorm2d(16, eps=1e-05, momentum=0.1, affine=False, track_running_stats=True)
              )
            )
            (6): POOLING(
              (op): AvgPool2d(kernel_size=3, stride=1, padding=1)
            )
            (7): POOLING(
              (op): MaxPool2d(kernel_size=3, stride=1, padding=1, dilation=1, ceil_mode=False)
            )
          )
        )
        (2<-1): MixedOp(
          (_ops): ModuleList(
            (0): Zero(C_in=16, C_out=16, stride=1)
            (1): Identity()
            (2): DualSepConv(
              (op_a): SepConv(
                (op): Sequential(
                  (0): ReLU()
                  (1): Conv2d(16, 16, kernel_size=(3, 3), stride=(1, 1), padding=(1, 1), groups=16, bias=False)
                  (2): Conv2d(16, 16, kernel_size=(1, 1), stride=(1, 1))
                  (3): BatchNorm2d(16, eps=1e-05, momentum=0.1, affine=False, track_running_stats=True)
                )
              )
              (op_b): SepConv(
                (op): Sequential(
                  (0): ReLU()
                  (1): Conv2d(16, 16, kernel_size=(3, 3), stride=(1, 1), padding=(1, 1), groups=16, bias=False)
                  (2): Conv2d(16, 16, kernel_size=(1, 1), stride=(1, 1))
                  (3): BatchNorm2d(16, eps=1e-05, momentum=0.1, affine=False, track_running_stats=True)
                )
              )
            )
            (3): DualSepConv(
              (op_a): SepConv(
                (op): Sequential(
                  (0): ReLU()
                  (1): Conv2d(16, 16, kernel_size=(5, 5), stride=(1, 1), padding=(2, 2), groups=16, bias=False)
                  (2): Conv2d(16, 16, kernel_size=(1, 1), stride=(1, 1))
                  (3): BatchNorm2d(16, eps=1e-05, momentum=0.1, affine=False, track_running_stats=True)
                )
              )
              (op_b): SepConv(
                (op): Sequential(
                  (0): ReLU()
                  (1): Conv2d(16, 16, kernel_size=(5, 5), stride=(1, 1), padding=(2, 2), groups=16, bias=False)
                  (2): Conv2d(16, 16, kernel_size=(1, 1), stride=(1, 1))
                  (3): BatchNorm2d(16, eps=1e-05, momentum=0.1, affine=False, track_running_stats=True)
                )
              )
            )
            (4): SepConv(
              (op): Sequential(
                (0): ReLU()
                (1): Conv2d(16, 16, kernel_size=(3, 3), stride=(1, 1), padding=(2, 2), dilation=(2, 2), groups=16, bias=False)
                (2): Conv2d(16, 16, kernel_size=(1, 1), stride=(1, 1))
                (3): BatchNorm2d(16, eps=1e-05, momentum=0.1, affine=False, track_running_stats=True)
              )
            )
            (5): SepConv(
              (op): Sequential(
                (0): ReLU()
                (1): Conv2d(16, 16, kernel_size=(5, 5), stride=(1, 1), padding=(4, 4), dilation=(2, 2), groups=16, bias=False)
                (2): Conv2d(16, 16, kernel_size=(1, 1), stride=(1, 1))
                (3): BatchNorm2d(16, eps=1e-05, momentum=0.1, affine=False, track_running_stats=True)
              )
            )
            (6): POOLING(
              (op): AvgPool2d(kernel_size=3, stride=1, padding=1)
            )
            (7): POOLING(
              (op): MaxPool2d(kernel_size=3, stride=1, padding=1, dilation=1, ceil_mode=False)
            )
          )
        )
        (2<-2): MixedOp(
          (_ops): ModuleList(
            (0): Zero(C_in=16, C_out=16, stride=1)
            (1): Identity()
            (2): DualSepConv(
              (op_a): SepConv(
                (op): Sequential(
                  (0): ReLU()
                  (1): Conv2d(16, 16, kernel_size=(3, 3), stride=(1, 1), padding=(1, 1), groups=16, bias=False)
                  (2): Conv2d(16, 16, kernel_size=(1, 1), stride=(1, 1))
                  (3): BatchNorm2d(16, eps=1e-05, momentum=0.1, affine=False, track_running_stats=True)
                )
              )
              (op_b): SepConv(
                (op): Sequential(
                  (0): ReLU()
                  (1): Conv2d(16, 16, kernel_size=(3, 3), stride=(1, 1), padding=(1, 1), groups=16, bias=False)
                  (2): Conv2d(16, 16, kernel_size=(1, 1), stride=(1, 1))
                  (3): BatchNorm2d(16, eps=1e-05, momentum=0.1, affine=False, track_running_stats=True)
                )
              )
            )
            (3): DualSepConv(
              (op_a): SepConv(
                (op): Sequential(
                  (0): ReLU()
                  (1): Conv2d(16, 16, kernel_size=(5, 5), stride=(1, 1), padding=(2, 2), groups=16, bias=False)
                  (2): Conv2d(16, 16, kernel_size=(1, 1), stride=(1, 1))
                  (3): BatchNorm2d(16, eps=1e-05, momentum=0.1, affine=False, track_running_stats=True)
                )
              )
              (op_b): SepConv(
                (op): Sequential(
                  (0): ReLU()
                  (1): Conv2d(16, 16, kernel_size=(5, 5), stride=(1, 1), padding=(2, 2), groups=16, bias=False)
                  (2): Conv2d(16, 16, kernel_size=(1, 1), stride=(1, 1))
                  (3): BatchNorm2d(16, eps=1e-05, momentum=0.1, affine=False, track_running_stats=True)
                )
              )
            )
            (4): SepConv(
              (op): Sequential(
                (0): ReLU()
                (1): Conv2d(16, 16, kernel_size=(3, 3), stride=(1, 1), padding=(2, 2), dilation=(2, 2), groups=16, bias=False)
                (2): Conv2d(16, 16, kernel_size=(1, 1), stride=(1, 1))
                (3): BatchNorm2d(16, eps=1e-05, momentum=0.1, affine=False, track_running_stats=True)
              )
            )
            (5): SepConv(
              (op): Sequential(
                (0): ReLU()
                (1): Conv2d(16, 16, kernel_size=(5, 5), stride=(1, 1), padding=(4, 4), dilation=(2, 2), groups=16, bias=False)
                (2): Conv2d(16, 16, kernel_size=(1, 1), stride=(1, 1))
                (3): BatchNorm2d(16, eps=1e-05, momentum=0.1, affine=False, track_running_stats=True)
              )
            )
            (6): POOLING(
              (op): AvgPool2d(kernel_size=3, stride=1, padding=1)
            )
            (7): POOLING(
              (op): MaxPool2d(kernel_size=3, stride=1, padding=1, dilation=1, ceil_mode=False)
            )
          )
        )
        (2<-3): MixedOp(
          (_ops): ModuleList(
            (0): Zero(C_in=16, C_out=16, stride=1)
            (1): Identity()
            (2): DualSepConv(
              (op_a): SepConv(
                (op): Sequential(
                  (0): ReLU()
                  (1): Conv2d(16, 16, kernel_size=(3, 3), stride=(1, 1), padding=(1, 1), groups=16, bias=False)
                  (2): Conv2d(16, 16, kernel_size=(1, 1), stride=(1, 1))
                  (3): BatchNorm2d(16, eps=1e-05, momentum=0.1, affine=False, track_running_stats=True)
                )
              )
              (op_b): SepConv(
                (op): Sequential(
                  (0): ReLU()
                  (1): Conv2d(16, 16, kernel_size=(3, 3), stride=(1, 1), padding=(1, 1), groups=16, bias=False)
                  (2): Conv2d(16, 16, kernel_size=(1, 1), stride=(1, 1))
                  (3): BatchNorm2d(16, eps=1e-05, momentum=0.1, affine=False, track_running_stats=True)
                )
              )
            )
            (3): DualSepConv(
              (op_a): SepConv(
                (op): Sequential(
                  (0): ReLU()
                  (1): Conv2d(16, 16, kernel_size=(5, 5), stride=(1, 1), padding=(2, 2), groups=16, bias=False)
                  (2): Conv2d(16, 16, kernel_size=(1, 1), stride=(1, 1))
                  (3): BatchNorm2d(16, eps=1e-05, momentum=0.1, affine=False, track_running_stats=True)
                )
              )
              (op_b): SepConv(
                (op): Sequential(
                  (0): ReLU()
                  (1): Conv2d(16, 16, kernel_size=(5, 5), stride=(1, 1), padding=(2, 2), groups=16, bias=False)
                  (2): Conv2d(16, 16, kernel_size=(1, 1), stride=(1, 1))
                  (3): BatchNorm2d(16, eps=1e-05, momentum=0.1, affine=False, track_running_stats=True)
                )
              )
            )
            (4): SepConv(
              (op): Sequential(
                (0): ReLU()
                (1): Conv2d(16, 16, kernel_size=(3, 3), stride=(1, 1), padding=(2, 2), dilation=(2, 2), groups=16, bias=False)
                (2): Conv2d(16, 16, kernel_size=(1, 1), stride=(1, 1))
                (3): BatchNorm2d(16, eps=1e-05, momentum=0.1, affine=False, track_running_stats=True)
              )
            )
            (5): SepConv(
              (op): Sequential(
                (0): ReLU()
                (1): Conv2d(16, 16, kernel_size=(5, 5), stride=(1, 1), padding=(4, 4), dilation=(2, 2), groups=16, bias=False)
                (2): Conv2d(16, 16, kernel_size=(1, 1), stride=(1, 1))
                (3): BatchNorm2d(16, eps=1e-05, momentum=0.1, affine=False, track_running_stats=True)
              )
            )
            (6): POOLING(
              (op): AvgPool2d(kernel_size=3, stride=1, padding=1)
            )
            (7): POOLING(
              (op): MaxPool2d(kernel_size=3, stride=1, padding=1, dilation=1, ceil_mode=False)
            )
          )
        )
        (3<-0): MixedOp(
          (_ops): ModuleList(
            (0): Zero(C_in=16, C_out=16, stride=1)
            (1): Identity()
            (2): DualSepConv(
              (op_a): SepConv(
                (op): Sequential(
                  (0): ReLU()
                  (1): Conv2d(16, 16, kernel_size=(3, 3), stride=(1, 1), padding=(1, 1), groups=16, bias=False)
                  (2): Conv2d(16, 16, kernel_size=(1, 1), stride=(1, 1))
                  (3): BatchNorm2d(16, eps=1e-05, momentum=0.1, affine=False, track_running_stats=True)
                )
              )
              (op_b): SepConv(
                (op): Sequential(
                  (0): ReLU()
                  (1): Conv2d(16, 16, kernel_size=(3, 3), stride=(1, 1), padding=(1, 1), groups=16, bias=False)
                  (2): Conv2d(16, 16, kernel_size=(1, 1), stride=(1, 1))
                  (3): BatchNorm2d(16, eps=1e-05, momentum=0.1, affine=False, track_running_stats=True)
                )
              )
            )
            (3): DualSepConv(
              (op_a): SepConv(
                (op): Sequential(
                  (0): ReLU()
                  (1): Conv2d(16, 16, kernel_size=(5, 5), stride=(1, 1), padding=(2, 2), groups=16, bias=False)
                  (2): Conv2d(16, 16, kernel_size=(1, 1), stride=(1, 1))
                  (3): BatchNorm2d(16, eps=1e-05, momentum=0.1, affine=False, track_running_stats=True)
                )
              )
              (op_b): SepConv(
                (op): Sequential(
                  (0): ReLU()
                  (1): Conv2d(16, 16, kernel_size=(5, 5), stride=(1, 1), padding=(2, 2), groups=16, bias=False)
                  (2): Conv2d(16, 16, kernel_size=(1, 1), stride=(1, 1))
                  (3): BatchNorm2d(16, eps=1e-05, momentum=0.1, affine=False, track_running_stats=True)
                )
              )
            )
            (4): SepConv(
              (op): Sequential(
                (0): ReLU()
                (1): Conv2d(16, 16, kernel_size=(3, 3), stride=(1, 1), padding=(2, 2), dilation=(2, 2), groups=16, bias=False)
                (2): Conv2d(16, 16, kernel_size=(1, 1), stride=(1, 1))
                (3): BatchNorm2d(16, eps=1e-05, momentum=0.1, affine=False, track_running_stats=True)
              )
            )
            (5): SepConv(
              (op): Sequential(
                (0): ReLU()
                (1): Conv2d(16, 16, kernel_size=(5, 5), stride=(1, 1), padding=(4, 4), dilation=(2, 2), groups=16, bias=False)
                (2): Conv2d(16, 16, kernel_size=(1, 1), stride=(1, 1))
                (3): BatchNorm2d(16, eps=1e-05, momentum=0.1, affine=False, track_running_stats=True)
              )
            )
            (6): POOLING(
              (op): AvgPool2d(kernel_size=3, stride=1, padding=1)
            )
            (7): POOLING(
              (op): MaxPool2d(kernel_size=3, stride=1, padding=1, dilation=1, ceil_mode=False)
            )
          )
        )
        (3<-1): MixedOp(
          (_ops): ModuleList(
            (0): Zero(C_in=16, C_out=16, stride=1)
            (1): Identity()
            (2): DualSepConv(
              (op_a): SepConv(
                (op): Sequential(
                  (0): ReLU()
                  (1): Conv2d(16, 16, kernel_size=(3, 3), stride=(1, 1), padding=(1, 1), groups=16, bias=False)
                  (2): Conv2d(16, 16, kernel_size=(1, 1), stride=(1, 1))
                  (3): BatchNorm2d(16, eps=1e-05, momentum=0.1, affine=False, track_running_stats=True)
                )
              )
              (op_b): SepConv(
                (op): Sequential(
                  (0): ReLU()
                  (1): Conv2d(16, 16, kernel_size=(3, 3), stride=(1, 1), padding=(1, 1), groups=16, bias=False)
                  (2): Conv2d(16, 16, kernel_size=(1, 1), stride=(1, 1))
                  (3): BatchNorm2d(16, eps=1e-05, momentum=0.1, affine=False, track_running_stats=True)
                )
              )
            )
            (3): DualSepConv(
              (op_a): SepConv(
                (op): Sequential(
                  (0): ReLU()
                  (1): Conv2d(16, 16, kernel_size=(5, 5), stride=(1, 1), padding=(2, 2), groups=16, bias=False)
                  (2): Conv2d(16, 16, kernel_size=(1, 1), stride=(1, 1))
                  (3): BatchNorm2d(16, eps=1e-05, momentum=0.1, affine=False, track_running_stats=True)
                )
              )
              (op_b): SepConv(
                (op): Sequential(
                  (0): ReLU()
                  (1): Conv2d(16, 16, kernel_size=(5, 5), stride=(1, 1), padding=(2, 2), groups=16, bias=False)
                  (2): Conv2d(16, 16, kernel_size=(1, 1), stride=(1, 1))
                  (3): BatchNorm2d(16, eps=1e-05, momentum=0.1, affine=False, track_running_stats=True)
                )
              )
            )
            (4): SepConv(
              (op): Sequential(
                (0): ReLU()
                (1): Conv2d(16, 16, kernel_size=(3, 3), stride=(1, 1), padding=(2, 2), dilation=(2, 2), groups=16, bias=False)
                (2): Conv2d(16, 16, kernel_size=(1, 1), stride=(1, 1))
                (3): BatchNorm2d(16, eps=1e-05, momentum=0.1, affine=False, track_running_stats=True)
              )
            )
            (5): SepConv(
              (op): Sequential(
                (0): ReLU()
                (1): Conv2d(16, 16, kernel_size=(5, 5), stride=(1, 1), padding=(4, 4), dilation=(2, 2), groups=16, bias=False)
                (2): Conv2d(16, 16, kernel_size=(1, 1), stride=(1, 1))
                (3): BatchNorm2d(16, eps=1e-05, momentum=0.1, affine=False, track_running_stats=True)
              )
            )
            (6): POOLING(
              (op): AvgPool2d(kernel_size=3, stride=1, padding=1)
            )
            (7): POOLING(
              (op): MaxPool2d(kernel_size=3, stride=1, padding=1, dilation=1, ceil_mode=False)
            )
          )
        )
        (3<-2): MixedOp(
          (_ops): ModuleList(
            (0): Zero(C_in=16, C_out=16, stride=1)
            (1): Identity()
            (2): DualSepConv(
              (op_a): SepConv(
                (op): Sequential(
                  (0): ReLU()
                  (1): Conv2d(16, 16, kernel_size=(3, 3), stride=(1, 1), padding=(1, 1), groups=16, bias=False)
                  (2): Conv2d(16, 16, kernel_size=(1, 1), stride=(1, 1))
                  (3): BatchNorm2d(16, eps=1e-05, momentum=0.1, affine=False, track_running_stats=True)
                )
              )
              (op_b): SepConv(
                (op): Sequential(
                  (0): ReLU()
                  (1): Conv2d(16, 16, kernel_size=(3, 3), stride=(1, 1), padding=(1, 1), groups=16, bias=False)
                  (2): Conv2d(16, 16, kernel_size=(1, 1), stride=(1, 1))
                  (3): BatchNorm2d(16, eps=1e-05, momentum=0.1, affine=False, track_running_stats=True)
                )
              )
            )
            (3): DualSepConv(
              (op_a): SepConv(
                (op): Sequential(
                  (0): ReLU()
                  (1): Conv2d(16, 16, kernel_size=(5, 5), stride=(1, 1), padding=(2, 2), groups=16, bias=False)
                  (2): Conv2d(16, 16, kernel_size=(1, 1), stride=(1, 1))
                  (3): BatchNorm2d(16, eps=1e-05, momentum=0.1, affine=False, track_running_stats=True)
                )
              )
              (op_b): SepConv(
                (op): Sequential(
                  (0): ReLU()
                  (1): Conv2d(16, 16, kernel_size=(5, 5), stride=(1, 1), padding=(2, 2), groups=16, bias=False)
                  (2): Conv2d(16, 16, kernel_size=(1, 1), stride=(1, 1))
                  (3): BatchNorm2d(16, eps=1e-05, momentum=0.1, affine=False, track_running_stats=True)
                )
              )
            )
            (4): SepConv(
              (op): Sequential(
                (0): ReLU()
                (1): Conv2d(16, 16, kernel_size=(3, 3), stride=(1, 1), padding=(2, 2), dilation=(2, 2), groups=16, bias=False)
                (2): Conv2d(16, 16, kernel_size=(1, 1), stride=(1, 1))
                (3): BatchNorm2d(16, eps=1e-05, momentum=0.1, affine=False, track_running_stats=True)
              )
            )
            (5): SepConv(
              (op): Sequential(
                (0): ReLU()
                (1): Conv2d(16, 16, kernel_size=(5, 5), stride=(1, 1), padding=(4, 4), dilation=(2, 2), groups=16, bias=False)
                (2): Conv2d(16, 16, kernel_size=(1, 1), stride=(1, 1))
                (3): BatchNorm2d(16, eps=1e-05, momentum=0.1, affine=False, track_running_stats=True)
              )
            )
            (6): POOLING(
              (op): AvgPool2d(kernel_size=3, stride=1, padding=1)
            )
            (7): POOLING(
              (op): MaxPool2d(kernel_size=3, stride=1, padding=1, dilation=1, ceil_mode=False)
            )
          )
        )
        (3<-3): MixedOp(
          (_ops): ModuleList(
            (0): Zero(C_in=16, C_out=16, stride=1)
            (1): Identity()
            (2): DualSepConv(
              (op_a): SepConv(
                (op): Sequential(
                  (0): ReLU()
                  (1): Conv2d(16, 16, kernel_size=(3, 3), stride=(1, 1), padding=(1, 1), groups=16, bias=False)
                  (2): Conv2d(16, 16, kernel_size=(1, 1), stride=(1, 1))
                  (3): BatchNorm2d(16, eps=1e-05, momentum=0.1, affine=False, track_running_stats=True)
                )
              )
              (op_b): SepConv(
                (op): Sequential(
                  (0): ReLU()
                  (1): Conv2d(16, 16, kernel_size=(3, 3), stride=(1, 1), padding=(1, 1), groups=16, bias=False)
                  (2): Conv2d(16, 16, kernel_size=(1, 1), stride=(1, 1))
                  (3): BatchNorm2d(16, eps=1e-05, momentum=0.1, affine=False, track_running_stats=True)
                )
              )
            )
            (3): DualSepConv(
              (op_a): SepConv(
                (op): Sequential(
                  (0): ReLU()
                  (1): Conv2d(16, 16, kernel_size=(5, 5), stride=(1, 1), padding=(2, 2), groups=16, bias=False)
                  (2): Conv2d(16, 16, kernel_size=(1, 1), stride=(1, 1))
                  (3): BatchNorm2d(16, eps=1e-05, momentum=0.1, affine=False, track_running_stats=True)
                )
              )
              (op_b): SepConv(
                (op): Sequential(
                  (0): ReLU()
                  (1): Conv2d(16, 16, kernel_size=(5, 5), stride=(1, 1), padding=(2, 2), groups=16, bias=False)
                  (2): Conv2d(16, 16, kernel_size=(1, 1), stride=(1, 1))
                  (3): BatchNorm2d(16, eps=1e-05, momentum=0.1, affine=False, track_running_stats=True)
                )
              )
            )
            (4): SepConv(
              (op): Sequential(
                (0): ReLU()
                (1): Conv2d(16, 16, kernel_size=(3, 3), stride=(1, 1), padding=(2, 2), dilation=(2, 2), groups=16, bias=False)
                (2): Conv2d(16, 16, kernel_size=(1, 1), stride=(1, 1))
                (3): BatchNorm2d(16, eps=1e-05, momentum=0.1, affine=False, track_running_stats=True)
              )
            )
            (5): SepConv(
              (op): Sequential(
                (0): ReLU()
                (1): Conv2d(16, 16, kernel_size=(5, 5), stride=(1, 1), padding=(4, 4), dilation=(2, 2), groups=16, bias=False)
                (2): Conv2d(16, 16, kernel_size=(1, 1), stride=(1, 1))
                (3): BatchNorm2d(16, eps=1e-05, momentum=0.1, affine=False, track_running_stats=True)
              )
            )
            (6): POOLING(
              (op): AvgPool2d(kernel_size=3, stride=1, padding=1)
            )
            (7): POOLING(
              (op): MaxPool2d(kernel_size=3, stride=1, padding=1, dilation=1, ceil_mode=False)
            )
          )
        )
        (3<-4): MixedOp(
          (_ops): ModuleList(
            (0): Zero(C_in=16, C_out=16, stride=1)
            (1): Identity()
            (2): DualSepConv(
              (op_a): SepConv(
                (op): Sequential(
                  (0): ReLU()
                  (1): Conv2d(16, 16, kernel_size=(3, 3), stride=(1, 1), padding=(1, 1), groups=16, bias=False)
                  (2): Conv2d(16, 16, kernel_size=(1, 1), stride=(1, 1))
                  (3): BatchNorm2d(16, eps=1e-05, momentum=0.1, affine=False, track_running_stats=True)
                )
              )
              (op_b): SepConv(
                (op): Sequential(
                  (0): ReLU()
                  (1): Conv2d(16, 16, kernel_size=(3, 3), stride=(1, 1), padding=(1, 1), groups=16, bias=False)
                  (2): Conv2d(16, 16, kernel_size=(1, 1), stride=(1, 1))
                  (3): BatchNorm2d(16, eps=1e-05, momentum=0.1, affine=False, track_running_stats=True)
                )
              )
            )
            (3): DualSepConv(
              (op_a): SepConv(
                (op): Sequential(
                  (0): ReLU()
                  (1): Conv2d(16, 16, kernel_size=(5, 5), stride=(1, 1), padding=(2, 2), groups=16, bias=False)
                  (2): Conv2d(16, 16, kernel_size=(1, 1), stride=(1, 1))
                  (3): BatchNorm2d(16, eps=1e-05, momentum=0.1, affine=False, track_running_stats=True)
                )
              )
              (op_b): SepConv(
                (op): Sequential(
                  (0): ReLU()
                  (1): Conv2d(16, 16, kernel_size=(5, 5), stride=(1, 1), padding=(2, 2), groups=16, bias=False)
                  (2): Conv2d(16, 16, kernel_size=(1, 1), stride=(1, 1))
                  (3): BatchNorm2d(16, eps=1e-05, momentum=0.1, affine=False, track_running_stats=True)
                )
              )
            )
            (4): SepConv(
              (op): Sequential(
                (0): ReLU()
                (1): Conv2d(16, 16, kernel_size=(3, 3), stride=(1, 1), padding=(2, 2), dilation=(2, 2), groups=16, bias=False)
                (2): Conv2d(16, 16, kernel_size=(1, 1), stride=(1, 1))
                (3): BatchNorm2d(16, eps=1e-05, momentum=0.1, affine=False, track_running_stats=True)
              )
            )
            (5): SepConv(
              (op): Sequential(
                (0): ReLU()
                (1): Conv2d(16, 16, kernel_size=(5, 5), stride=(1, 1), padding=(4, 4), dilation=(2, 2), groups=16, bias=False)
                (2): Conv2d(16, 16, kernel_size=(1, 1), stride=(1, 1))
                (3): BatchNorm2d(16, eps=1e-05, momentum=0.1, affine=False, track_running_stats=True)
              )
            )
            (6): POOLING(
              (op): AvgPool2d(kernel_size=3, stride=1, padding=1)
            )
            (7): POOLING(
              (op): MaxPool2d(kernel_size=3, stride=1, padding=1, dilation=1, ceil_mode=False)
            )
          )
        )
      )
    )
    (2): NASNetSearchCell(
      (preprocess0): ReLUConvBN(
        (op): Sequential(
          (0): ReLU()
          (1): Conv2d(64, 32, kernel_size=(1, 1), stride=(1, 1))
          (2): BatchNorm2d(32, eps=1e-05, momentum=0.1, affine=False, track_running_stats=True)
        )
      )
      (preprocess1): ReLUConvBN(
        (op): Sequential(
          (0): ReLU()
          (1): Conv2d(64, 32, kernel_size=(1, 1), stride=(1, 1))
          (2): BatchNorm2d(32, eps=1e-05, momentum=0.1, affine=False, track_running_stats=True)
        )
      )
      (_ops): ModuleList()
      (edges): ModuleDict(
        (0<-0): MixedOp(
          (_ops): ModuleList(
            (0): Zero(C_in=32, C_out=32, stride=2)
            (1): FactorizedReduce(
              C_in=32, C_out=32, stride=2
              (relu): ReLU()
              (convs): ModuleList(
                (0): Conv2d(32, 16, kernel_size=(1, 1), stride=(2, 2))
                (1): Conv2d(32, 16, kernel_size=(1, 1), stride=(2, 2))
              )
              (pad): ConstantPad2d(padding=(0, 1, 0, 1), value=0)
              (bn): BatchNorm2d(32, eps=1e-05, momentum=0.1, affine=False, track_running_stats=True)
            )
            (2): DualSepConv(
              (op_a): SepConv(
                (op): Sequential(
                  (0): ReLU()
                  (1): Conv2d(32, 32, kernel_size=(3, 3), stride=(2, 2), padding=(1, 1), groups=32, bias=False)
                  (2): Conv2d(32, 32, kernel_size=(1, 1), stride=(1, 1))
                  (3): BatchNorm2d(32, eps=1e-05, momentum=0.1, affine=False, track_running_stats=True)
                )
              )
              (op_b): SepConv(
                (op): Sequential(
                  (0): ReLU()
                  (1): Conv2d(32, 32, kernel_size=(3, 3), stride=(1, 1), padding=(1, 1), groups=32, bias=False)
                  (2): Conv2d(32, 32, kernel_size=(1, 1), stride=(1, 1))
                  (3): BatchNorm2d(32, eps=1e-05, momentum=0.1, affine=False, track_running_stats=True)
                )
              )
            )
            (3): DualSepConv(
              (op_a): SepConv(
                (op): Sequential(
                  (0): ReLU()
                  (1): Conv2d(32, 32, kernel_size=(5, 5), stride=(2, 2), padding=(2, 2), groups=32, bias=False)
                  (2): Conv2d(32, 32, kernel_size=(1, 1), stride=(1, 1))
                  (3): BatchNorm2d(32, eps=1e-05, momentum=0.1, affine=False, track_running_stats=True)
                )
              )
              (op_b): SepConv(
                (op): Sequential(
                  (0): ReLU()
                  (1): Conv2d(32, 32, kernel_size=(5, 5), stride=(1, 1), padding=(2, 2), groups=32, bias=False)
                  (2): Conv2d(32, 32, kernel_size=(1, 1), stride=(1, 1))
                  (3): BatchNorm2d(32, eps=1e-05, momentum=0.1, affine=False, track_running_stats=True)
                )
              )
            )
            (4): SepConv(
              (op): Sequential(
                (0): ReLU()
                (1): Conv2d(32, 32, kernel_size=(3, 3), stride=(2, 2), padding=(2, 2), dilation=(2, 2), groups=32, bias=False)
                (2): Conv2d(32, 32, kernel_size=(1, 1), stride=(1, 1))
                (3): BatchNorm2d(32, eps=1e-05, momentum=0.1, affine=False, track_running_stats=True)
              )
            )
            (5): SepConv(
              (op): Sequential(
                (0): ReLU()
                (1): Conv2d(32, 32, kernel_size=(5, 5), stride=(2, 2), padding=(4, 4), dilation=(2, 2), groups=32, bias=False)
                (2): Conv2d(32, 32, kernel_size=(1, 1), stride=(1, 1))
                (3): BatchNorm2d(32, eps=1e-05, momentum=0.1, affine=False, track_running_stats=True)
              )
            )
            (6): POOLING(
              (op): AvgPool2d(kernel_size=3, stride=2, padding=1)
            )
            (7): POOLING(
              (op): MaxPool2d(kernel_size=3, stride=2, padding=1, dilation=1, ceil_mode=False)
            )
          )
        )
        (0<-1): MixedOp(
          (_ops): ModuleList(
            (0): Zero(C_in=32, C_out=32, stride=2)
            (1): FactorizedReduce(
              C_in=32, C_out=32, stride=2
              (relu): ReLU()
              (convs): ModuleList(
                (0): Conv2d(32, 16, kernel_size=(1, 1), stride=(2, 2))
                (1): Conv2d(32, 16, kernel_size=(1, 1), stride=(2, 2))
              )
              (pad): ConstantPad2d(padding=(0, 1, 0, 1), value=0)
              (bn): BatchNorm2d(32, eps=1e-05, momentum=0.1, affine=False, track_running_stats=True)
            )
            (2): DualSepConv(
              (op_a): SepConv(
                (op): Sequential(
                  (0): ReLU()
                  (1): Conv2d(32, 32, kernel_size=(3, 3), stride=(2, 2), padding=(1, 1), groups=32, bias=False)
                  (2): Conv2d(32, 32, kernel_size=(1, 1), stride=(1, 1))
                  (3): BatchNorm2d(32, eps=1e-05, momentum=0.1, affine=False, track_running_stats=True)
                )
              )
              (op_b): SepConv(
                (op): Sequential(
                  (0): ReLU()
                  (1): Conv2d(32, 32, kernel_size=(3, 3), stride=(1, 1), padding=(1, 1), groups=32, bias=False)
                  (2): Conv2d(32, 32, kernel_size=(1, 1), stride=(1, 1))
                  (3): BatchNorm2d(32, eps=1e-05, momentum=0.1, affine=False, track_running_stats=True)
                )
              )
            )
            (3): DualSepConv(
              (op_a): SepConv(
                (op): Sequential(
                  (0): ReLU()
                  (1): Conv2d(32, 32, kernel_size=(5, 5), stride=(2, 2), padding=(2, 2), groups=32, bias=False)
                  (2): Conv2d(32, 32, kernel_size=(1, 1), stride=(1, 1))
                  (3): BatchNorm2d(32, eps=1e-05, momentum=0.1, affine=False, track_running_stats=True)
                )
              )
              (op_b): SepConv(
                (op): Sequential(
                  (0): ReLU()
                  (1): Conv2d(32, 32, kernel_size=(5, 5), stride=(1, 1), padding=(2, 2), groups=32, bias=False)
                  (2): Conv2d(32, 32, kernel_size=(1, 1), stride=(1, 1))
                  (3): BatchNorm2d(32, eps=1e-05, momentum=0.1, affine=False, track_running_stats=True)
                )
              )
            )
            (4): SepConv(
              (op): Sequential(
                (0): ReLU()
                (1): Conv2d(32, 32, kernel_size=(3, 3), stride=(2, 2), padding=(2, 2), dilation=(2, 2), groups=32, bias=False)
                (2): Conv2d(32, 32, kernel_size=(1, 1), stride=(1, 1))
                (3): BatchNorm2d(32, eps=1e-05, momentum=0.1, affine=False, track_running_stats=True)
              )
            )
            (5): SepConv(
              (op): Sequential(
                (0): ReLU()
                (1): Conv2d(32, 32, kernel_size=(5, 5), stride=(2, 2), padding=(4, 4), dilation=(2, 2), groups=32, bias=False)
                (2): Conv2d(32, 32, kernel_size=(1, 1), stride=(1, 1))
                (3): BatchNorm2d(32, eps=1e-05, momentum=0.1, affine=False, track_running_stats=True)
              )
            )
            (6): POOLING(
              (op): AvgPool2d(kernel_size=3, stride=2, padding=1)
            )
            (7): POOLING(
              (op): MaxPool2d(kernel_size=3, stride=2, padding=1, dilation=1, ceil_mode=False)
            )
          )
        )
        (1<-0): MixedOp(
          (_ops): ModuleList(
            (0): Zero(C_in=32, C_out=32, stride=2)
            (1): FactorizedReduce(
              C_in=32, C_out=32, stride=2
              (relu): ReLU()
              (convs): ModuleList(
                (0): Conv2d(32, 16, kernel_size=(1, 1), stride=(2, 2))
                (1): Conv2d(32, 16, kernel_size=(1, 1), stride=(2, 2))
              )
              (pad): ConstantPad2d(padding=(0, 1, 0, 1), value=0)
              (bn): BatchNorm2d(32, eps=1e-05, momentum=0.1, affine=False, track_running_stats=True)
            )
            (2): DualSepConv(
              (op_a): SepConv(
                (op): Sequential(
                  (0): ReLU()
                  (1): Conv2d(32, 32, kernel_size=(3, 3), stride=(2, 2), padding=(1, 1), groups=32, bias=False)
                  (2): Conv2d(32, 32, kernel_size=(1, 1), stride=(1, 1))
                  (3): BatchNorm2d(32, eps=1e-05, momentum=0.1, affine=False, track_running_stats=True)
                )
              )
              (op_b): SepConv(
                (op): Sequential(
                  (0): ReLU()
                  (1): Conv2d(32, 32, kernel_size=(3, 3), stride=(1, 1), padding=(1, 1), groups=32, bias=False)
                  (2): Conv2d(32, 32, kernel_size=(1, 1), stride=(1, 1))
                  (3): BatchNorm2d(32, eps=1e-05, momentum=0.1, affine=False, track_running_stats=True)
                )
              )
            )
            (3): DualSepConv(
              (op_a): SepConv(
                (op): Sequential(
                  (0): ReLU()
                  (1): Conv2d(32, 32, kernel_size=(5, 5), stride=(2, 2), padding=(2, 2), groups=32, bias=False)
                  (2): Conv2d(32, 32, kernel_size=(1, 1), stride=(1, 1))
                  (3): BatchNorm2d(32, eps=1e-05, momentum=0.1, affine=False, track_running_stats=True)
                )
              )
              (op_b): SepConv(
                (op): Sequential(
                  (0): ReLU()
                  (1): Conv2d(32, 32, kernel_size=(5, 5), stride=(1, 1), padding=(2, 2), groups=32, bias=False)
                  (2): Conv2d(32, 32, kernel_size=(1, 1), stride=(1, 1))
                  (3): BatchNorm2d(32, eps=1e-05, momentum=0.1, affine=False, track_running_stats=True)
                )
              )
            )
            (4): SepConv(
              (op): Sequential(
                (0): ReLU()
                (1): Conv2d(32, 32, kernel_size=(3, 3), stride=(2, 2), padding=(2, 2), dilation=(2, 2), groups=32, bias=False)
                (2): Conv2d(32, 32, kernel_size=(1, 1), stride=(1, 1))
                (3): BatchNorm2d(32, eps=1e-05, momentum=0.1, affine=False, track_running_stats=True)
              )
            )
            (5): SepConv(
              (op): Sequential(
                (0): ReLU()
                (1): Conv2d(32, 32, kernel_size=(5, 5), stride=(2, 2), padding=(4, 4), dilation=(2, 2), groups=32, bias=False)
                (2): Conv2d(32, 32, kernel_size=(1, 1), stride=(1, 1))
                (3): BatchNorm2d(32, eps=1e-05, momentum=0.1, affine=False, track_running_stats=True)
              )
            )
            (6): POOLING(
              (op): AvgPool2d(kernel_size=3, stride=2, padding=1)
            )
            (7): POOLING(
              (op): MaxPool2d(kernel_size=3, stride=2, padding=1, dilation=1, ceil_mode=False)
            )
          )
        )
        (1<-1): MixedOp(
          (_ops): ModuleList(
            (0): Zero(C_in=32, C_out=32, stride=2)
            (1): FactorizedReduce(
              C_in=32, C_out=32, stride=2
              (relu): ReLU()
              (convs): ModuleList(
                (0): Conv2d(32, 16, kernel_size=(1, 1), stride=(2, 2))
                (1): Conv2d(32, 16, kernel_size=(1, 1), stride=(2, 2))
              )
              (pad): ConstantPad2d(padding=(0, 1, 0, 1), value=0)
              (bn): BatchNorm2d(32, eps=1e-05, momentum=0.1, affine=False, track_running_stats=True)
            )
            (2): DualSepConv(
              (op_a): SepConv(
                (op): Sequential(
                  (0): ReLU()
                  (1): Conv2d(32, 32, kernel_size=(3, 3), stride=(2, 2), padding=(1, 1), groups=32, bias=False)
                  (2): Conv2d(32, 32, kernel_size=(1, 1), stride=(1, 1))
                  (3): BatchNorm2d(32, eps=1e-05, momentum=0.1, affine=False, track_running_stats=True)
                )
              )
              (op_b): SepConv(
                (op): Sequential(
                  (0): ReLU()
                  (1): Conv2d(32, 32, kernel_size=(3, 3), stride=(1, 1), padding=(1, 1), groups=32, bias=False)
                  (2): Conv2d(32, 32, kernel_size=(1, 1), stride=(1, 1))
                  (3): BatchNorm2d(32, eps=1e-05, momentum=0.1, affine=False, track_running_stats=True)
                )
              )
            )
            (3): DualSepConv(
              (op_a): SepConv(
                (op): Sequential(
                  (0): ReLU()
                  (1): Conv2d(32, 32, kernel_size=(5, 5), stride=(2, 2), padding=(2, 2), groups=32, bias=False)
                  (2): Conv2d(32, 32, kernel_size=(1, 1), stride=(1, 1))
                  (3): BatchNorm2d(32, eps=1e-05, momentum=0.1, affine=False, track_running_stats=True)
                )
              )
              (op_b): SepConv(
                (op): Sequential(
                  (0): ReLU()
                  (1): Conv2d(32, 32, kernel_size=(5, 5), stride=(1, 1), padding=(2, 2), groups=32, bias=False)
                  (2): Conv2d(32, 32, kernel_size=(1, 1), stride=(1, 1))
                  (3): BatchNorm2d(32, eps=1e-05, momentum=0.1, affine=False, track_running_stats=True)
                )
              )
            )
            (4): SepConv(
              (op): Sequential(
                (0): ReLU()
                (1): Conv2d(32, 32, kernel_size=(3, 3), stride=(2, 2), padding=(2, 2), dilation=(2, 2), groups=32, bias=False)
                (2): Conv2d(32, 32, kernel_size=(1, 1), stride=(1, 1))
                (3): BatchNorm2d(32, eps=1e-05, momentum=0.1, affine=False, track_running_stats=True)
              )
            )
            (5): SepConv(
              (op): Sequential(
                (0): ReLU()
                (1): Conv2d(32, 32, kernel_size=(5, 5), stride=(2, 2), padding=(4, 4), dilation=(2, 2), groups=32, bias=False)
                (2): Conv2d(32, 32, kernel_size=(1, 1), stride=(1, 1))
                (3): BatchNorm2d(32, eps=1e-05, momentum=0.1, affine=False, track_running_stats=True)
              )
            )
            (6): POOLING(
              (op): AvgPool2d(kernel_size=3, stride=2, padding=1)
            )
            (7): POOLING(
              (op): MaxPool2d(kernel_size=3, stride=2, padding=1, dilation=1, ceil_mode=False)
            )
          )
        )
        (1<-2): MixedOp(
          (_ops): ModuleList(
            (0): Zero(C_in=32, C_out=32, stride=1)
            (1): Identity()
            (2): DualSepConv(
              (op_a): SepConv(
                (op): Sequential(
                  (0): ReLU()
                  (1): Conv2d(32, 32, kernel_size=(3, 3), stride=(1, 1), padding=(1, 1), groups=32, bias=False)
                  (2): Conv2d(32, 32, kernel_size=(1, 1), stride=(1, 1))
                  (3): BatchNorm2d(32, eps=1e-05, momentum=0.1, affine=False, track_running_stats=True)
                )
              )
              (op_b): SepConv(
                (op): Sequential(
                  (0): ReLU()
                  (1): Conv2d(32, 32, kernel_size=(3, 3), stride=(1, 1), padding=(1, 1), groups=32, bias=False)
                  (2): Conv2d(32, 32, kernel_size=(1, 1), stride=(1, 1))
                  (3): BatchNorm2d(32, eps=1e-05, momentum=0.1, affine=False, track_running_stats=True)
                )
              )
            )
            (3): DualSepConv(
              (op_a): SepConv(
                (op): Sequential(
                  (0): ReLU()
                  (1): Conv2d(32, 32, kernel_size=(5, 5), stride=(1, 1), padding=(2, 2), groups=32, bias=False)
                  (2): Conv2d(32, 32, kernel_size=(1, 1), stride=(1, 1))
                  (3): BatchNorm2d(32, eps=1e-05, momentum=0.1, affine=False, track_running_stats=True)
                )
              )
              (op_b): SepConv(
                (op): Sequential(
                  (0): ReLU()
                  (1): Conv2d(32, 32, kernel_size=(5, 5), stride=(1, 1), padding=(2, 2), groups=32, bias=False)
                  (2): Conv2d(32, 32, kernel_size=(1, 1), stride=(1, 1))
                  (3): BatchNorm2d(32, eps=1e-05, momentum=0.1, affine=False, track_running_stats=True)
                )
              )
            )
            (4): SepConv(
              (op): Sequential(
                (0): ReLU()
                (1): Conv2d(32, 32, kernel_size=(3, 3), stride=(1, 1), padding=(2, 2), dilation=(2, 2), groups=32, bias=False)
                (2): Conv2d(32, 32, kernel_size=(1, 1), stride=(1, 1))
                (3): BatchNorm2d(32, eps=1e-05, momentum=0.1, affine=False, track_running_stats=True)
              )
            )
            (5): SepConv(
              (op): Sequential(
                (0): ReLU()
                (1): Conv2d(32, 32, kernel_size=(5, 5), stride=(1, 1), padding=(4, 4), dilation=(2, 2), groups=32, bias=False)
                (2): Conv2d(32, 32, kernel_size=(1, 1), stride=(1, 1))
                (3): BatchNorm2d(32, eps=1e-05, momentum=0.1, affine=False, track_running_stats=True)
              )
            )
            (6): POOLING(
              (op): AvgPool2d(kernel_size=3, stride=1, padding=1)
            )
            (7): POOLING(
              (op): MaxPool2d(kernel_size=3, stride=1, padding=1, dilation=1, ceil_mode=False)
            )
          )
        )
        (2<-0): MixedOp(
          (_ops): ModuleList(
            (0): Zero(C_in=32, C_out=32, stride=2)
            (1): FactorizedReduce(
              C_in=32, C_out=32, stride=2
              (relu): ReLU()
              (convs): ModuleList(
                (0): Conv2d(32, 16, kernel_size=(1, 1), stride=(2, 2))
                (1): Conv2d(32, 16, kernel_size=(1, 1), stride=(2, 2))
              )
              (pad): ConstantPad2d(padding=(0, 1, 0, 1), value=0)
              (bn): BatchNorm2d(32, eps=1e-05, momentum=0.1, affine=False, track_running_stats=True)
            )
            (2): DualSepConv(
              (op_a): SepConv(
                (op): Sequential(
                  (0): ReLU()
                  (1): Conv2d(32, 32, kernel_size=(3, 3), stride=(2, 2), padding=(1, 1), groups=32, bias=False)
                  (2): Conv2d(32, 32, kernel_size=(1, 1), stride=(1, 1))
                  (3): BatchNorm2d(32, eps=1e-05, momentum=0.1, affine=False, track_running_stats=True)
                )
              )
              (op_b): SepConv(
                (op): Sequential(
                  (0): ReLU()
                  (1): Conv2d(32, 32, kernel_size=(3, 3), stride=(1, 1), padding=(1, 1), groups=32, bias=False)
                  (2): Conv2d(32, 32, kernel_size=(1, 1), stride=(1, 1))
                  (3): BatchNorm2d(32, eps=1e-05, momentum=0.1, affine=False, track_running_stats=True)
                )
              )
            )
            (3): DualSepConv(
              (op_a): SepConv(
                (op): Sequential(
                  (0): ReLU()
                  (1): Conv2d(32, 32, kernel_size=(5, 5), stride=(2, 2), padding=(2, 2), groups=32, bias=False)
                  (2): Conv2d(32, 32, kernel_size=(1, 1), stride=(1, 1))
                  (3): BatchNorm2d(32, eps=1e-05, momentum=0.1, affine=False, track_running_stats=True)
                )
              )
              (op_b): SepConv(
                (op): Sequential(
                  (0): ReLU()
                  (1): Conv2d(32, 32, kernel_size=(5, 5), stride=(1, 1), padding=(2, 2), groups=32, bias=False)
                  (2): Conv2d(32, 32, kernel_size=(1, 1), stride=(1, 1))
                  (3): BatchNorm2d(32, eps=1e-05, momentum=0.1, affine=False, track_running_stats=True)
                )
              )
            )
            (4): SepConv(
              (op): Sequential(
                (0): ReLU()
                (1): Conv2d(32, 32, kernel_size=(3, 3), stride=(2, 2), padding=(2, 2), dilation=(2, 2), groups=32, bias=False)
                (2): Conv2d(32, 32, kernel_size=(1, 1), stride=(1, 1))
                (3): BatchNorm2d(32, eps=1e-05, momentum=0.1, affine=False, track_running_stats=True)
              )
            )
            (5): SepConv(
              (op): Sequential(
                (0): ReLU()
                (1): Conv2d(32, 32, kernel_size=(5, 5), stride=(2, 2), padding=(4, 4), dilation=(2, 2), groups=32, bias=False)
                (2): Conv2d(32, 32, kernel_size=(1, 1), stride=(1, 1))
                (3): BatchNorm2d(32, eps=1e-05, momentum=0.1, affine=False, track_running_stats=True)
              )
            )
            (6): POOLING(
              (op): AvgPool2d(kernel_size=3, stride=2, padding=1)
            )
            (7): POOLING(
              (op): MaxPool2d(kernel_size=3, stride=2, padding=1, dilation=1, ceil_mode=False)
            )
          )
        )
        (2<-1): MixedOp(
          (_ops): ModuleList(
            (0): Zero(C_in=32, C_out=32, stride=2)
            (1): FactorizedReduce(
              C_in=32, C_out=32, stride=2
              (relu): ReLU()
              (convs): ModuleList(
                (0): Conv2d(32, 16, kernel_size=(1, 1), stride=(2, 2))
                (1): Conv2d(32, 16, kernel_size=(1, 1), stride=(2, 2))
              )
              (pad): ConstantPad2d(padding=(0, 1, 0, 1), value=0)
              (bn): BatchNorm2d(32, eps=1e-05, momentum=0.1, affine=False, track_running_stats=True)
            )
            (2): DualSepConv(
              (op_a): SepConv(
                (op): Sequential(
                  (0): ReLU()
                  (1): Conv2d(32, 32, kernel_size=(3, 3), stride=(2, 2), padding=(1, 1), groups=32, bias=False)
                  (2): Conv2d(32, 32, kernel_size=(1, 1), stride=(1, 1))
                  (3): BatchNorm2d(32, eps=1e-05, momentum=0.1, affine=False, track_running_stats=True)
                )
              )
              (op_b): SepConv(
                (op): Sequential(
                  (0): ReLU()
                  (1): Conv2d(32, 32, kernel_size=(3, 3), stride=(1, 1), padding=(1, 1), groups=32, bias=False)
                  (2): Conv2d(32, 32, kernel_size=(1, 1), stride=(1, 1))
                  (3): BatchNorm2d(32, eps=1e-05, momentum=0.1, affine=False, track_running_stats=True)
                )
              )
            )
            (3): DualSepConv(
              (op_a): SepConv(
                (op): Sequential(
                  (0): ReLU()
                  (1): Conv2d(32, 32, kernel_size=(5, 5), stride=(2, 2), padding=(2, 2), groups=32, bias=False)
                  (2): Conv2d(32, 32, kernel_size=(1, 1), stride=(1, 1))
                  (3): BatchNorm2d(32, eps=1e-05, momentum=0.1, affine=False, track_running_stats=True)
                )
              )
              (op_b): SepConv(
                (op): Sequential(
                  (0): ReLU()
                  (1): Conv2d(32, 32, kernel_size=(5, 5), stride=(1, 1), padding=(2, 2), groups=32, bias=False)
                  (2): Conv2d(32, 32, kernel_size=(1, 1), stride=(1, 1))
                  (3): BatchNorm2d(32, eps=1e-05, momentum=0.1, affine=False, track_running_stats=True)
                )
              )
            )
            (4): SepConv(
              (op): Sequential(
                (0): ReLU()
                (1): Conv2d(32, 32, kernel_size=(3, 3), stride=(2, 2), padding=(2, 2), dilation=(2, 2), groups=32, bias=False)
                (2): Conv2d(32, 32, kernel_size=(1, 1), stride=(1, 1))
                (3): BatchNorm2d(32, eps=1e-05, momentum=0.1, affine=False, track_running_stats=True)
              )
            )
            (5): SepConv(
              (op): Sequential(
                (0): ReLU()
                (1): Conv2d(32, 32, kernel_size=(5, 5), stride=(2, 2), padding=(4, 4), dilation=(2, 2), groups=32, bias=False)
                (2): Conv2d(32, 32, kernel_size=(1, 1), stride=(1, 1))
                (3): BatchNorm2d(32, eps=1e-05, momentum=0.1, affine=False, track_running_stats=True)
              )
            )
            (6): POOLING(
              (op): AvgPool2d(kernel_size=3, stride=2, padding=1)
            )
            (7): POOLING(
              (op): MaxPool2d(kernel_size=3, stride=2, padding=1, dilation=1, ceil_mode=False)
            )
          )
        )
        (2<-2): MixedOp(
          (_ops): ModuleList(
            (0): Zero(C_in=32, C_out=32, stride=1)
            (1): Identity()
            (2): DualSepConv(
              (op_a): SepConv(
                (op): Sequential(
                  (0): ReLU()
                  (1): Conv2d(32, 32, kernel_size=(3, 3), stride=(1, 1), padding=(1, 1), groups=32, bias=False)
                  (2): Conv2d(32, 32, kernel_size=(1, 1), stride=(1, 1))
                  (3): BatchNorm2d(32, eps=1e-05, momentum=0.1, affine=False, track_running_stats=True)
                )
              )
              (op_b): SepConv(
                (op): Sequential(
                  (0): ReLU()
                  (1): Conv2d(32, 32, kernel_size=(3, 3), stride=(1, 1), padding=(1, 1), groups=32, bias=False)
                  (2): Conv2d(32, 32, kernel_size=(1, 1), stride=(1, 1))
                  (3): BatchNorm2d(32, eps=1e-05, momentum=0.1, affine=False, track_running_stats=True)
                )
              )
            )
            (3): DualSepConv(
              (op_a): SepConv(
                (op): Sequential(
                  (0): ReLU()
                  (1): Conv2d(32, 32, kernel_size=(5, 5), stride=(1, 1), padding=(2, 2), groups=32, bias=False)
                  (2): Conv2d(32, 32, kernel_size=(1, 1), stride=(1, 1))
                  (3): BatchNorm2d(32, eps=1e-05, momentum=0.1, affine=False, track_running_stats=True)
                )
              )
              (op_b): SepConv(
                (op): Sequential(
                  (0): ReLU()
                  (1): Conv2d(32, 32, kernel_size=(5, 5), stride=(1, 1), padding=(2, 2), groups=32, bias=False)
                  (2): Conv2d(32, 32, kernel_size=(1, 1), stride=(1, 1))
                  (3): BatchNorm2d(32, eps=1e-05, momentum=0.1, affine=False, track_running_stats=True)
                )
              )
            )
            (4): SepConv(
              (op): Sequential(
                (0): ReLU()
                (1): Conv2d(32, 32, kernel_size=(3, 3), stride=(1, 1), padding=(2, 2), dilation=(2, 2), groups=32, bias=False)
                (2): Conv2d(32, 32, kernel_size=(1, 1), stride=(1, 1))
                (3): BatchNorm2d(32, eps=1e-05, momentum=0.1, affine=False, track_running_stats=True)
              )
            )
            (5): SepConv(
              (op): Sequential(
                (0): ReLU()
                (1): Conv2d(32, 32, kernel_size=(5, 5), stride=(1, 1), padding=(4, 4), dilation=(2, 2), groups=32, bias=False)
                (2): Conv2d(32, 32, kernel_size=(1, 1), stride=(1, 1))
                (3): BatchNorm2d(32, eps=1e-05, momentum=0.1, affine=False, track_running_stats=True)
              )
            )
            (6): POOLING(
              (op): AvgPool2d(kernel_size=3, stride=1, padding=1)
            )
            (7): POOLING(
              (op): MaxPool2d(kernel_size=3, stride=1, padding=1, dilation=1, ceil_mode=False)
            )
          )
        )
        (2<-3): MixedOp(
          (_ops): ModuleList(
            (0): Zero(C_in=32, C_out=32, stride=1)
            (1): Identity()
            (2): DualSepConv(
              (op_a): SepConv(
                (op): Sequential(
                  (0): ReLU()
                  (1): Conv2d(32, 32, kernel_size=(3, 3), stride=(1, 1), padding=(1, 1), groups=32, bias=False)
                  (2): Conv2d(32, 32, kernel_size=(1, 1), stride=(1, 1))
                  (3): BatchNorm2d(32, eps=1e-05, momentum=0.1, affine=False, track_running_stats=True)
                )
              )
              (op_b): SepConv(
                (op): Sequential(
                  (0): ReLU()
                  (1): Conv2d(32, 32, kernel_size=(3, 3), stride=(1, 1), padding=(1, 1), groups=32, bias=False)
                  (2): Conv2d(32, 32, kernel_size=(1, 1), stride=(1, 1))
                  (3): BatchNorm2d(32, eps=1e-05, momentum=0.1, affine=False, track_running_stats=True)
                )
              )
            )
            (3): DualSepConv(
              (op_a): SepConv(
                (op): Sequential(
                  (0): ReLU()
                  (1): Conv2d(32, 32, kernel_size=(5, 5), stride=(1, 1), padding=(2, 2), groups=32, bias=False)
                  (2): Conv2d(32, 32, kernel_size=(1, 1), stride=(1, 1))
                  (3): BatchNorm2d(32, eps=1e-05, momentum=0.1, affine=False, track_running_stats=True)
                )
              )
              (op_b): SepConv(
                (op): Sequential(
                  (0): ReLU()
                  (1): Conv2d(32, 32, kernel_size=(5, 5), stride=(1, 1), padding=(2, 2), groups=32, bias=False)
                  (2): Conv2d(32, 32, kernel_size=(1, 1), stride=(1, 1))
                  (3): BatchNorm2d(32, eps=1e-05, momentum=0.1, affine=False, track_running_stats=True)
                )
              )
            )
            (4): SepConv(
              (op): Sequential(
                (0): ReLU()
                (1): Conv2d(32, 32, kernel_size=(3, 3), stride=(1, 1), padding=(2, 2), dilation=(2, 2), groups=32, bias=False)
                (2): Conv2d(32, 32, kernel_size=(1, 1), stride=(1, 1))
                (3): BatchNorm2d(32, eps=1e-05, momentum=0.1, affine=False, track_running_stats=True)
              )
            )
            (5): SepConv(
              (op): Sequential(
                (0): ReLU()
                (1): Conv2d(32, 32, kernel_size=(5, 5), stride=(1, 1), padding=(4, 4), dilation=(2, 2), groups=32, bias=False)
                (2): Conv2d(32, 32, kernel_size=(1, 1), stride=(1, 1))
                (3): BatchNorm2d(32, eps=1e-05, momentum=0.1, affine=False, track_running_stats=True)
              )
            )
            (6): POOLING(
              (op): AvgPool2d(kernel_size=3, stride=1, padding=1)
            )
            (7): POOLING(
              (op): MaxPool2d(kernel_size=3, stride=1, padding=1, dilation=1, ceil_mode=False)
            )
          )
        )
        (3<-0): MixedOp(
          (_ops): ModuleList(
            (0): Zero(C_in=32, C_out=32, stride=2)
            (1): FactorizedReduce(
              C_in=32, C_out=32, stride=2
              (relu): ReLU()
              (convs): ModuleList(
                (0): Conv2d(32, 16, kernel_size=(1, 1), stride=(2, 2))
                (1): Conv2d(32, 16, kernel_size=(1, 1), stride=(2, 2))
              )
              (pad): ConstantPad2d(padding=(0, 1, 0, 1), value=0)
              (bn): BatchNorm2d(32, eps=1e-05, momentum=0.1, affine=False, track_running_stats=True)
            )
            (2): DualSepConv(
              (op_a): SepConv(
                (op): Sequential(
                  (0): ReLU()
                  (1): Conv2d(32, 32, kernel_size=(3, 3), stride=(2, 2), padding=(1, 1), groups=32, bias=False)
                  (2): Conv2d(32, 32, kernel_size=(1, 1), stride=(1, 1))
                  (3): BatchNorm2d(32, eps=1e-05, momentum=0.1, affine=False, track_running_stats=True)
                )
              )
              (op_b): SepConv(
                (op): Sequential(
                  (0): ReLU()
                  (1): Conv2d(32, 32, kernel_size=(3, 3), stride=(1, 1), padding=(1, 1), groups=32, bias=False)
                  (2): Conv2d(32, 32, kernel_size=(1, 1), stride=(1, 1))
                  (3): BatchNorm2d(32, eps=1e-05, momentum=0.1, affine=False, track_running_stats=True)
                )
              )
            )
            (3): DualSepConv(
              (op_a): SepConv(
                (op): Sequential(
                  (0): ReLU()
                  (1): Conv2d(32, 32, kernel_size=(5, 5), stride=(2, 2), padding=(2, 2), groups=32, bias=False)
                  (2): Conv2d(32, 32, kernel_size=(1, 1), stride=(1, 1))
                  (3): BatchNorm2d(32, eps=1e-05, momentum=0.1, affine=False, track_running_stats=True)
                )
              )
              (op_b): SepConv(
                (op): Sequential(
                  (0): ReLU()
                  (1): Conv2d(32, 32, kernel_size=(5, 5), stride=(1, 1), padding=(2, 2), groups=32, bias=False)
                  (2): Conv2d(32, 32, kernel_size=(1, 1), stride=(1, 1))
                  (3): BatchNorm2d(32, eps=1e-05, momentum=0.1, affine=False, track_running_stats=True)
                )
              )
            )
            (4): SepConv(
              (op): Sequential(
                (0): ReLU()
                (1): Conv2d(32, 32, kernel_size=(3, 3), stride=(2, 2), padding=(2, 2), dilation=(2, 2), groups=32, bias=False)
                (2): Conv2d(32, 32, kernel_size=(1, 1), stride=(1, 1))
                (3): BatchNorm2d(32, eps=1e-05, momentum=0.1, affine=False, track_running_stats=True)
              )
            )
            (5): SepConv(
              (op): Sequential(
                (0): ReLU()
                (1): Conv2d(32, 32, kernel_size=(5, 5), stride=(2, 2), padding=(4, 4), dilation=(2, 2), groups=32, bias=False)
                (2): Conv2d(32, 32, kernel_size=(1, 1), stride=(1, 1))
                (3): BatchNorm2d(32, eps=1e-05, momentum=0.1, affine=False, track_running_stats=True)
              )
            )
            (6): POOLING(
              (op): AvgPool2d(kernel_size=3, stride=2, padding=1)
            )
            (7): POOLING(
              (op): MaxPool2d(kernel_size=3, stride=2, padding=1, dilation=1, ceil_mode=False)
            )
          )
        )
        (3<-1): MixedOp(
          (_ops): ModuleList(
            (0): Zero(C_in=32, C_out=32, stride=2)
            (1): FactorizedReduce(
              C_in=32, C_out=32, stride=2
              (relu): ReLU()
              (convs): ModuleList(
                (0): Conv2d(32, 16, kernel_size=(1, 1), stride=(2, 2))
                (1): Conv2d(32, 16, kernel_size=(1, 1), stride=(2, 2))
              )
              (pad): ConstantPad2d(padding=(0, 1, 0, 1), value=0)
              (bn): BatchNorm2d(32, eps=1e-05, momentum=0.1, affine=False, track_running_stats=True)
            )
            (2): DualSepConv(
              (op_a): SepConv(
                (op): Sequential(
                  (0): ReLU()
                  (1): Conv2d(32, 32, kernel_size=(3, 3), stride=(2, 2), padding=(1, 1), groups=32, bias=False)
                  (2): Conv2d(32, 32, kernel_size=(1, 1), stride=(1, 1))
                  (3): BatchNorm2d(32, eps=1e-05, momentum=0.1, affine=False, track_running_stats=True)
                )
              )
              (op_b): SepConv(
                (op): Sequential(
                  (0): ReLU()
                  (1): Conv2d(32, 32, kernel_size=(3, 3), stride=(1, 1), padding=(1, 1), groups=32, bias=False)
                  (2): Conv2d(32, 32, kernel_size=(1, 1), stride=(1, 1))
                  (3): BatchNorm2d(32, eps=1e-05, momentum=0.1, affine=False, track_running_stats=True)
                )
              )
            )
            (3): DualSepConv(
              (op_a): SepConv(
                (op): Sequential(
                  (0): ReLU()
                  (1): Conv2d(32, 32, kernel_size=(5, 5), stride=(2, 2), padding=(2, 2), groups=32, bias=False)
                  (2): Conv2d(32, 32, kernel_size=(1, 1), stride=(1, 1))
                  (3): BatchNorm2d(32, eps=1e-05, momentum=0.1, affine=False, track_running_stats=True)
                )
              )
              (op_b): SepConv(
                (op): Sequential(
                  (0): ReLU()
                  (1): Conv2d(32, 32, kernel_size=(5, 5), stride=(1, 1), padding=(2, 2), groups=32, bias=False)
                  (2): Conv2d(32, 32, kernel_size=(1, 1), stride=(1, 1))
                  (3): BatchNorm2d(32, eps=1e-05, momentum=0.1, affine=False, track_running_stats=True)
                )
              )
            )
            (4): SepConv(
              (op): Sequential(
                (0): ReLU()
                (1): Conv2d(32, 32, kernel_size=(3, 3), stride=(2, 2), padding=(2, 2), dilation=(2, 2), groups=32, bias=False)
                (2): Conv2d(32, 32, kernel_size=(1, 1), stride=(1, 1))
                (3): BatchNorm2d(32, eps=1e-05, momentum=0.1, affine=False, track_running_stats=True)
              )
            )
            (5): SepConv(
              (op): Sequential(
                (0): ReLU()
                (1): Conv2d(32, 32, kernel_size=(5, 5), stride=(2, 2), padding=(4, 4), dilation=(2, 2), groups=32, bias=False)
                (2): Conv2d(32, 32, kernel_size=(1, 1), stride=(1, 1))
                (3): BatchNorm2d(32, eps=1e-05, momentum=0.1, affine=False, track_running_stats=True)
              )
            )
            (6): POOLING(
              (op): AvgPool2d(kernel_size=3, stride=2, padding=1)
            )
            (7): POOLING(
              (op): MaxPool2d(kernel_size=3, stride=2, padding=1, dilation=1, ceil_mode=False)
            )
          )
        )
        (3<-2): MixedOp(
          (_ops): ModuleList(
            (0): Zero(C_in=32, C_out=32, stride=1)
            (1): Identity()
            (2): DualSepConv(
              (op_a): SepConv(
                (op): Sequential(
                  (0): ReLU()
                  (1): Conv2d(32, 32, kernel_size=(3, 3), stride=(1, 1), padding=(1, 1), groups=32, bias=False)
                  (2): Conv2d(32, 32, kernel_size=(1, 1), stride=(1, 1))
                  (3): BatchNorm2d(32, eps=1e-05, momentum=0.1, affine=False, track_running_stats=True)
                )
              )
              (op_b): SepConv(
                (op): Sequential(
                  (0): ReLU()
                  (1): Conv2d(32, 32, kernel_size=(3, 3), stride=(1, 1), padding=(1, 1), groups=32, bias=False)
                  (2): Conv2d(32, 32, kernel_size=(1, 1), stride=(1, 1))
                  (3): BatchNorm2d(32, eps=1e-05, momentum=0.1, affine=False, track_running_stats=True)
                )
              )
            )
            (3): DualSepConv(
              (op_a): SepConv(
                (op): Sequential(
                  (0): ReLU()
                  (1): Conv2d(32, 32, kernel_size=(5, 5), stride=(1, 1), padding=(2, 2), groups=32, bias=False)
                  (2): Conv2d(32, 32, kernel_size=(1, 1), stride=(1, 1))
                  (3): BatchNorm2d(32, eps=1e-05, momentum=0.1, affine=False, track_running_stats=True)
                )
              )
              (op_b): SepConv(
                (op): Sequential(
                  (0): ReLU()
                  (1): Conv2d(32, 32, kernel_size=(5, 5), stride=(1, 1), padding=(2, 2), groups=32, bias=False)
                  (2): Conv2d(32, 32, kernel_size=(1, 1), stride=(1, 1))
                  (3): BatchNorm2d(32, eps=1e-05, momentum=0.1, affine=False, track_running_stats=True)
                )
              )
            )
            (4): SepConv(
              (op): Sequential(
                (0): ReLU()
                (1): Conv2d(32, 32, kernel_size=(3, 3), stride=(1, 1), padding=(2, 2), dilation=(2, 2), groups=32, bias=False)
                (2): Conv2d(32, 32, kernel_size=(1, 1), stride=(1, 1))
                (3): BatchNorm2d(32, eps=1e-05, momentum=0.1, affine=False, track_running_stats=True)
              )
            )
            (5): SepConv(
              (op): Sequential(
                (0): ReLU()
                (1): Conv2d(32, 32, kernel_size=(5, 5), stride=(1, 1), padding=(4, 4), dilation=(2, 2), groups=32, bias=False)
                (2): Conv2d(32, 32, kernel_size=(1, 1), stride=(1, 1))
                (3): BatchNorm2d(32, eps=1e-05, momentum=0.1, affine=False, track_running_stats=True)
              )
            )
            (6): POOLING(
              (op): AvgPool2d(kernel_size=3, stride=1, padding=1)
            )
            (7): POOLING(
              (op): MaxPool2d(kernel_size=3, stride=1, padding=1, dilation=1, ceil_mode=False)
            )
          )
        )
        (3<-3): MixedOp(
          (_ops): ModuleList(
            (0): Zero(C_in=32, C_out=32, stride=1)
            (1): Identity()
            (2): DualSepConv(
              (op_a): SepConv(
                (op): Sequential(
                  (0): ReLU()
                  (1): Conv2d(32, 32, kernel_size=(3, 3), stride=(1, 1), padding=(1, 1), groups=32, bias=False)
                  (2): Conv2d(32, 32, kernel_size=(1, 1), stride=(1, 1))
                  (3): BatchNorm2d(32, eps=1e-05, momentum=0.1, affine=False, track_running_stats=True)
                )
              )
              (op_b): SepConv(
                (op): Sequential(
                  (0): ReLU()
                  (1): Conv2d(32, 32, kernel_size=(3, 3), stride=(1, 1), padding=(1, 1), groups=32, bias=False)
                  (2): Conv2d(32, 32, kernel_size=(1, 1), stride=(1, 1))
                  (3): BatchNorm2d(32, eps=1e-05, momentum=0.1, affine=False, track_running_stats=True)
                )
              )
            )
            (3): DualSepConv(
              (op_a): SepConv(
                (op): Sequential(
                  (0): ReLU()
                  (1): Conv2d(32, 32, kernel_size=(5, 5), stride=(1, 1), padding=(2, 2), groups=32, bias=False)
                  (2): Conv2d(32, 32, kernel_size=(1, 1), stride=(1, 1))
                  (3): BatchNorm2d(32, eps=1e-05, momentum=0.1, affine=False, track_running_stats=True)
                )
              )
              (op_b): SepConv(
                (op): Sequential(
                  (0): ReLU()
                  (1): Conv2d(32, 32, kernel_size=(5, 5), stride=(1, 1), padding=(2, 2), groups=32, bias=False)
                  (2): Conv2d(32, 32, kernel_size=(1, 1), stride=(1, 1))
                  (3): BatchNorm2d(32, eps=1e-05, momentum=0.1, affine=False, track_running_stats=True)
                )
              )
            )
            (4): SepConv(
              (op): Sequential(
                (0): ReLU()
                (1): Conv2d(32, 32, kernel_size=(3, 3), stride=(1, 1), padding=(2, 2), dilation=(2, 2), groups=32, bias=False)
                (2): Conv2d(32, 32, kernel_size=(1, 1), stride=(1, 1))
                (3): BatchNorm2d(32, eps=1e-05, momentum=0.1, affine=False, track_running_stats=True)
              )
            )
            (5): SepConv(
              (op): Sequential(
                (0): ReLU()
                (1): Conv2d(32, 32, kernel_size=(5, 5), stride=(1, 1), padding=(4, 4), dilation=(2, 2), groups=32, bias=False)
                (2): Conv2d(32, 32, kernel_size=(1, 1), stride=(1, 1))
                (3): BatchNorm2d(32, eps=1e-05, momentum=0.1, affine=False, track_running_stats=True)
              )
            )
            (6): POOLING(
              (op): AvgPool2d(kernel_size=3, stride=1, padding=1)
            )
            (7): POOLING(
              (op): MaxPool2d(kernel_size=3, stride=1, padding=1, dilation=1, ceil_mode=False)
            )
          )
        )
        (3<-4): MixedOp(
          (_ops): ModuleList(
            (0): Zero(C_in=32, C_out=32, stride=1)
            (1): Identity()
            (2): DualSepConv(
              (op_a): SepConv(
                (op): Sequential(
                  (0): ReLU()
                  (1): Conv2d(32, 32, kernel_size=(3, 3), stride=(1, 1), padding=(1, 1), groups=32, bias=False)
                  (2): Conv2d(32, 32, kernel_size=(1, 1), stride=(1, 1))
                  (3): BatchNorm2d(32, eps=1e-05, momentum=0.1, affine=False, track_running_stats=True)
                )
              )
              (op_b): SepConv(
                (op): Sequential(
                  (0): ReLU()
                  (1): Conv2d(32, 32, kernel_size=(3, 3), stride=(1, 1), padding=(1, 1), groups=32, bias=False)
                  (2): Conv2d(32, 32, kernel_size=(1, 1), stride=(1, 1))
                  (3): BatchNorm2d(32, eps=1e-05, momentum=0.1, affine=False, track_running_stats=True)
                )
              )
            )
            (3): DualSepConv(
              (op_a): SepConv(
                (op): Sequential(
                  (0): ReLU()
                  (1): Conv2d(32, 32, kernel_size=(5, 5), stride=(1, 1), padding=(2, 2), groups=32, bias=False)
                  (2): Conv2d(32, 32, kernel_size=(1, 1), stride=(1, 1))
                  (3): BatchNorm2d(32, eps=1e-05, momentum=0.1, affine=False, track_running_stats=True)
                )
              )
              (op_b): SepConv(
                (op): Sequential(
                  (0): ReLU()
                  (1): Conv2d(32, 32, kernel_size=(5, 5), stride=(1, 1), padding=(2, 2), groups=32, bias=False)
                  (2): Conv2d(32, 32, kernel_size=(1, 1), stride=(1, 1))
                  (3): BatchNorm2d(32, eps=1e-05, momentum=0.1, affine=False, track_running_stats=True)
                )
              )
            )
            (4): SepConv(
              (op): Sequential(
                (0): ReLU()
                (1): Conv2d(32, 32, kernel_size=(3, 3), stride=(1, 1), padding=(2, 2), dilation=(2, 2), groups=32, bias=False)
                (2): Conv2d(32, 32, kernel_size=(1, 1), stride=(1, 1))
                (3): BatchNorm2d(32, eps=1e-05, momentum=0.1, affine=False, track_running_stats=True)
              )
            )
            (5): SepConv(
              (op): Sequential(
                (0): ReLU()
                (1): Conv2d(32, 32, kernel_size=(5, 5), stride=(1, 1), padding=(4, 4), dilation=(2, 2), groups=32, bias=False)
                (2): Conv2d(32, 32, kernel_size=(1, 1), stride=(1, 1))
                (3): BatchNorm2d(32, eps=1e-05, momentum=0.1, affine=False, track_running_stats=True)
              )
            )
            (6): POOLING(
              (op): AvgPool2d(kernel_size=3, stride=1, padding=1)
            )
            (7): POOLING(
              (op): MaxPool2d(kernel_size=3, stride=1, padding=1, dilation=1, ceil_mode=False)
            )
          )
        )
      )
    )
    (3): NASNetSearchCell(
      (preprocess0): FactorizedReduce(
        C_in=64, C_out=32, stride=2
        (relu): ReLU()
        (convs): ModuleList(
          (0): Conv2d(64, 16, kernel_size=(1, 1), stride=(2, 2))
          (1): Conv2d(64, 16, kernel_size=(1, 1), stride=(2, 2))
        )
        (pad): ConstantPad2d(padding=(0, 1, 0, 1), value=0)
        (bn): BatchNorm2d(32, eps=1e-05, momentum=0.1, affine=False, track_running_stats=True)
      )
      (preprocess1): ReLUConvBN(
        (op): Sequential(
          (0): ReLU()
          (1): Conv2d(128, 32, kernel_size=(1, 1), stride=(1, 1))
          (2): BatchNorm2d(32, eps=1e-05, momentum=0.1, affine=False, track_running_stats=True)
        )
      )
      (_ops): ModuleList()
      (edges): ModuleDict(
        (0<-0): MixedOp(
          (_ops): ModuleList(
            (0): Zero(C_in=32, C_out=32, stride=1)
            (1): Identity()
            (2): DualSepConv(
              (op_a): SepConv(
                (op): Sequential(
                  (0): ReLU()
                  (1): Conv2d(32, 32, kernel_size=(3, 3), stride=(1, 1), padding=(1, 1), groups=32, bias=False)
                  (2): Conv2d(32, 32, kernel_size=(1, 1), stride=(1, 1))
                  (3): BatchNorm2d(32, eps=1e-05, momentum=0.1, affine=False, track_running_stats=True)
                )
              )
              (op_b): SepConv(
                (op): Sequential(
                  (0): ReLU()
                  (1): Conv2d(32, 32, kernel_size=(3, 3), stride=(1, 1), padding=(1, 1), groups=32, bias=False)
                  (2): Conv2d(32, 32, kernel_size=(1, 1), stride=(1, 1))
                  (3): BatchNorm2d(32, eps=1e-05, momentum=0.1, affine=False, track_running_stats=True)
                )
              )
            )
            (3): DualSepConv(
              (op_a): SepConv(
                (op): Sequential(
                  (0): ReLU()
                  (1): Conv2d(32, 32, kernel_size=(5, 5), stride=(1, 1), padding=(2, 2), groups=32, bias=False)
                  (2): Conv2d(32, 32, kernel_size=(1, 1), stride=(1, 1))
                  (3): BatchNorm2d(32, eps=1e-05, momentum=0.1, affine=False, track_running_stats=True)
                )
              )
              (op_b): SepConv(
                (op): Sequential(
                  (0): ReLU()
                  (1): Conv2d(32, 32, kernel_size=(5, 5), stride=(1, 1), padding=(2, 2), groups=32, bias=False)
                  (2): Conv2d(32, 32, kernel_size=(1, 1), stride=(1, 1))
                  (3): BatchNorm2d(32, eps=1e-05, momentum=0.1, affine=False, track_running_stats=True)
                )
              )
            )
            (4): SepConv(
              (op): Sequential(
                (0): ReLU()
                (1): Conv2d(32, 32, kernel_size=(3, 3), stride=(1, 1), padding=(2, 2), dilation=(2, 2), groups=32, bias=False)
                (2): Conv2d(32, 32, kernel_size=(1, 1), stride=(1, 1))
                (3): BatchNorm2d(32, eps=1e-05, momentum=0.1, affine=False, track_running_stats=True)
              )
            )
            (5): SepConv(
              (op): Sequential(
                (0): ReLU()
                (1): Conv2d(32, 32, kernel_size=(5, 5), stride=(1, 1), padding=(4, 4), dilation=(2, 2), groups=32, bias=False)
                (2): Conv2d(32, 32, kernel_size=(1, 1), stride=(1, 1))
                (3): BatchNorm2d(32, eps=1e-05, momentum=0.1, affine=False, track_running_stats=True)
              )
            )
            (6): POOLING(
              (op): AvgPool2d(kernel_size=3, stride=1, padding=1)
            )
            (7): POOLING(
              (op): MaxPool2d(kernel_size=3, stride=1, padding=1, dilation=1, ceil_mode=False)
            )
          )
        )
        (0<-1): MixedOp(
          (_ops): ModuleList(
            (0): Zero(C_in=32, C_out=32, stride=1)
            (1): Identity()
            (2): DualSepConv(
              (op_a): SepConv(
                (op): Sequential(
                  (0): ReLU()
                  (1): Conv2d(32, 32, kernel_size=(3, 3), stride=(1, 1), padding=(1, 1), groups=32, bias=False)
                  (2): Conv2d(32, 32, kernel_size=(1, 1), stride=(1, 1))
                  (3): BatchNorm2d(32, eps=1e-05, momentum=0.1, affine=False, track_running_stats=True)
                )
              )
              (op_b): SepConv(
                (op): Sequential(
                  (0): ReLU()
                  (1): Conv2d(32, 32, kernel_size=(3, 3), stride=(1, 1), padding=(1, 1), groups=32, bias=False)
                  (2): Conv2d(32, 32, kernel_size=(1, 1), stride=(1, 1))
                  (3): BatchNorm2d(32, eps=1e-05, momentum=0.1, affine=False, track_running_stats=True)
                )
              )
            )
            (3): DualSepConv(
              (op_a): SepConv(
                (op): Sequential(
                  (0): ReLU()
                  (1): Conv2d(32, 32, kernel_size=(5, 5), stride=(1, 1), padding=(2, 2), groups=32, bias=False)
                  (2): Conv2d(32, 32, kernel_size=(1, 1), stride=(1, 1))
                  (3): BatchNorm2d(32, eps=1e-05, momentum=0.1, affine=False, track_running_stats=True)
                )
              )
              (op_b): SepConv(
                (op): Sequential(
                  (0): ReLU()
                  (1): Conv2d(32, 32, kernel_size=(5, 5), stride=(1, 1), padding=(2, 2), groups=32, bias=False)
                  (2): Conv2d(32, 32, kernel_size=(1, 1), stride=(1, 1))
                  (3): BatchNorm2d(32, eps=1e-05, momentum=0.1, affine=False, track_running_stats=True)
                )
              )
            )
            (4): SepConv(
              (op): Sequential(
                (0): ReLU()
                (1): Conv2d(32, 32, kernel_size=(3, 3), stride=(1, 1), padding=(2, 2), dilation=(2, 2), groups=32, bias=False)
                (2): Conv2d(32, 32, kernel_size=(1, 1), stride=(1, 1))
                (3): BatchNorm2d(32, eps=1e-05, momentum=0.1, affine=False, track_running_stats=True)
              )
            )
            (5): SepConv(
              (op): Sequential(
                (0): ReLU()
                (1): Conv2d(32, 32, kernel_size=(5, 5), stride=(1, 1), padding=(4, 4), dilation=(2, 2), groups=32, bias=False)
                (2): Conv2d(32, 32, kernel_size=(1, 1), stride=(1, 1))
                (3): BatchNorm2d(32, eps=1e-05, momentum=0.1, affine=False, track_running_stats=True)
              )
            )
            (6): POOLING(
              (op): AvgPool2d(kernel_size=3, stride=1, padding=1)
            )
            (7): POOLING(
              (op): MaxPool2d(kernel_size=3, stride=1, padding=1, dilation=1, ceil_mode=False)
            )
          )
        )
        (1<-0): MixedOp(
          (_ops): ModuleList(
            (0): Zero(C_in=32, C_out=32, stride=1)
            (1): Identity()
            (2): DualSepConv(
              (op_a): SepConv(
                (op): Sequential(
                  (0): ReLU()
                  (1): Conv2d(32, 32, kernel_size=(3, 3), stride=(1, 1), padding=(1, 1), groups=32, bias=False)
                  (2): Conv2d(32, 32, kernel_size=(1, 1), stride=(1, 1))
                  (3): BatchNorm2d(32, eps=1e-05, momentum=0.1, affine=False, track_running_stats=True)
                )
              )
              (op_b): SepConv(
                (op): Sequential(
                  (0): ReLU()
                  (1): Conv2d(32, 32, kernel_size=(3, 3), stride=(1, 1), padding=(1, 1), groups=32, bias=False)
                  (2): Conv2d(32, 32, kernel_size=(1, 1), stride=(1, 1))
                  (3): BatchNorm2d(32, eps=1e-05, momentum=0.1, affine=False, track_running_stats=True)
                )
              )
            )
            (3): DualSepConv(
              (op_a): SepConv(
                (op): Sequential(
                  (0): ReLU()
                  (1): Conv2d(32, 32, kernel_size=(5, 5), stride=(1, 1), padding=(2, 2), groups=32, bias=False)
                  (2): Conv2d(32, 32, kernel_size=(1, 1), stride=(1, 1))
                  (3): BatchNorm2d(32, eps=1e-05, momentum=0.1, affine=False, track_running_stats=True)
                )
              )
              (op_b): SepConv(
                (op): Sequential(
                  (0): ReLU()
                  (1): Conv2d(32, 32, kernel_size=(5, 5), stride=(1, 1), padding=(2, 2), groups=32, bias=False)
                  (2): Conv2d(32, 32, kernel_size=(1, 1), stride=(1, 1))
                  (3): BatchNorm2d(32, eps=1e-05, momentum=0.1, affine=False, track_running_stats=True)
                )
              )
            )
            (4): SepConv(
              (op): Sequential(
                (0): ReLU()
                (1): Conv2d(32, 32, kernel_size=(3, 3), stride=(1, 1), padding=(2, 2), dilation=(2, 2), groups=32, bias=False)
                (2): Conv2d(32, 32, kernel_size=(1, 1), stride=(1, 1))
                (3): BatchNorm2d(32, eps=1e-05, momentum=0.1, affine=False, track_running_stats=True)
              )
            )
            (5): SepConv(
              (op): Sequential(
                (0): ReLU()
                (1): Conv2d(32, 32, kernel_size=(5, 5), stride=(1, 1), padding=(4, 4), dilation=(2, 2), groups=32, bias=False)
                (2): Conv2d(32, 32, kernel_size=(1, 1), stride=(1, 1))
                (3): BatchNorm2d(32, eps=1e-05, momentum=0.1, affine=False, track_running_stats=True)
              )
            )
            (6): POOLING(
              (op): AvgPool2d(kernel_size=3, stride=1, padding=1)
            )
            (7): POOLING(
              (op): MaxPool2d(kernel_size=3, stride=1, padding=1, dilation=1, ceil_mode=False)
            )
          )
        )
        (1<-1): MixedOp(
          (_ops): ModuleList(
            (0): Zero(C_in=32, C_out=32, stride=1)
            (1): Identity()
            (2): DualSepConv(
              (op_a): SepConv(
                (op): Sequential(
                  (0): ReLU()
                  (1): Conv2d(32, 32, kernel_size=(3, 3), stride=(1, 1), padding=(1, 1), groups=32, bias=False)
                  (2): Conv2d(32, 32, kernel_size=(1, 1), stride=(1, 1))
                  (3): BatchNorm2d(32, eps=1e-05, momentum=0.1, affine=False, track_running_stats=True)
                )
              )
              (op_b): SepConv(
                (op): Sequential(
                  (0): ReLU()
                  (1): Conv2d(32, 32, kernel_size=(3, 3), stride=(1, 1), padding=(1, 1), groups=32, bias=False)
                  (2): Conv2d(32, 32, kernel_size=(1, 1), stride=(1, 1))
                  (3): BatchNorm2d(32, eps=1e-05, momentum=0.1, affine=False, track_running_stats=True)
                )
              )
            )
            (3): DualSepConv(
              (op_a): SepConv(
                (op): Sequential(
                  (0): ReLU()
                  (1): Conv2d(32, 32, kernel_size=(5, 5), stride=(1, 1), padding=(2, 2), groups=32, bias=False)
                  (2): Conv2d(32, 32, kernel_size=(1, 1), stride=(1, 1))
                  (3): BatchNorm2d(32, eps=1e-05, momentum=0.1, affine=False, track_running_stats=True)
                )
              )
              (op_b): SepConv(
                (op): Sequential(
                  (0): ReLU()
                  (1): Conv2d(32, 32, kernel_size=(5, 5), stride=(1, 1), padding=(2, 2), groups=32, bias=False)
                  (2): Conv2d(32, 32, kernel_size=(1, 1), stride=(1, 1))
                  (3): BatchNorm2d(32, eps=1e-05, momentum=0.1, affine=False, track_running_stats=True)
                )
              )
            )
            (4): SepConv(
              (op): Sequential(
                (0): ReLU()
                (1): Conv2d(32, 32, kernel_size=(3, 3), stride=(1, 1), padding=(2, 2), dilation=(2, 2), groups=32, bias=False)
                (2): Conv2d(32, 32, kernel_size=(1, 1), stride=(1, 1))
                (3): BatchNorm2d(32, eps=1e-05, momentum=0.1, affine=False, track_running_stats=True)
              )
            )
            (5): SepConv(
              (op): Sequential(
                (0): ReLU()
                (1): Conv2d(32, 32, kernel_size=(5, 5), stride=(1, 1), padding=(4, 4), dilation=(2, 2), groups=32, bias=False)
                (2): Conv2d(32, 32, kernel_size=(1, 1), stride=(1, 1))
                (3): BatchNorm2d(32, eps=1e-05, momentum=0.1, affine=False, track_running_stats=True)
              )
            )
            (6): POOLING(
              (op): AvgPool2d(kernel_size=3, stride=1, padding=1)
            )
            (7): POOLING(
              (op): MaxPool2d(kernel_size=3, stride=1, padding=1, dilation=1, ceil_mode=False)
            )
          )
        )
        (1<-2): MixedOp(
          (_ops): ModuleList(
            (0): Zero(C_in=32, C_out=32, stride=1)
            (1): Identity()
            (2): DualSepConv(
              (op_a): SepConv(
                (op): Sequential(
                  (0): ReLU()
                  (1): Conv2d(32, 32, kernel_size=(3, 3), stride=(1, 1), padding=(1, 1), groups=32, bias=False)
                  (2): Conv2d(32, 32, kernel_size=(1, 1), stride=(1, 1))
                  (3): BatchNorm2d(32, eps=1e-05, momentum=0.1, affine=False, track_running_stats=True)
                )
              )
              (op_b): SepConv(
                (op): Sequential(
                  (0): ReLU()
                  (1): Conv2d(32, 32, kernel_size=(3, 3), stride=(1, 1), padding=(1, 1), groups=32, bias=False)
                  (2): Conv2d(32, 32, kernel_size=(1, 1), stride=(1, 1))
                  (3): BatchNorm2d(32, eps=1e-05, momentum=0.1, affine=False, track_running_stats=True)
                )
              )
            )
            (3): DualSepConv(
              (op_a): SepConv(
                (op): Sequential(
                  (0): ReLU()
                  (1): Conv2d(32, 32, kernel_size=(5, 5), stride=(1, 1), padding=(2, 2), groups=32, bias=False)
                  (2): Conv2d(32, 32, kernel_size=(1, 1), stride=(1, 1))
                  (3): BatchNorm2d(32, eps=1e-05, momentum=0.1, affine=False, track_running_stats=True)
                )
              )
              (op_b): SepConv(
                (op): Sequential(
                  (0): ReLU()
                  (1): Conv2d(32, 32, kernel_size=(5, 5), stride=(1, 1), padding=(2, 2), groups=32, bias=False)
                  (2): Conv2d(32, 32, kernel_size=(1, 1), stride=(1, 1))
                  (3): BatchNorm2d(32, eps=1e-05, momentum=0.1, affine=False, track_running_stats=True)
                )
              )
            )
            (4): SepConv(
              (op): Sequential(
                (0): ReLU()
                (1): Conv2d(32, 32, kernel_size=(3, 3), stride=(1, 1), padding=(2, 2), dilation=(2, 2), groups=32, bias=False)
                (2): Conv2d(32, 32, kernel_size=(1, 1), stride=(1, 1))
                (3): BatchNorm2d(32, eps=1e-05, momentum=0.1, affine=False, track_running_stats=True)
              )
            )
            (5): SepConv(
              (op): Sequential(
                (0): ReLU()
                (1): Conv2d(32, 32, kernel_size=(5, 5), stride=(1, 1), padding=(4, 4), dilation=(2, 2), groups=32, bias=False)
                (2): Conv2d(32, 32, kernel_size=(1, 1), stride=(1, 1))
                (3): BatchNorm2d(32, eps=1e-05, momentum=0.1, affine=False, track_running_stats=True)
              )
            )
            (6): POOLING(
              (op): AvgPool2d(kernel_size=3, stride=1, padding=1)
            )
            (7): POOLING(
              (op): MaxPool2d(kernel_size=3, stride=1, padding=1, dilation=1, ceil_mode=False)
            )
          )
        )
        (2<-0): MixedOp(
          (_ops): ModuleList(
            (0): Zero(C_in=32, C_out=32, stride=1)
            (1): Identity()
            (2): DualSepConv(
              (op_a): SepConv(
                (op): Sequential(
                  (0): ReLU()
                  (1): Conv2d(32, 32, kernel_size=(3, 3), stride=(1, 1), padding=(1, 1), groups=32, bias=False)
                  (2): Conv2d(32, 32, kernel_size=(1, 1), stride=(1, 1))
                  (3): BatchNorm2d(32, eps=1e-05, momentum=0.1, affine=False, track_running_stats=True)
                )
              )
              (op_b): SepConv(
                (op): Sequential(
                  (0): ReLU()
                  (1): Conv2d(32, 32, kernel_size=(3, 3), stride=(1, 1), padding=(1, 1), groups=32, bias=False)
                  (2): Conv2d(32, 32, kernel_size=(1, 1), stride=(1, 1))
                  (3): BatchNorm2d(32, eps=1e-05, momentum=0.1, affine=False, track_running_stats=True)
                )
              )
            )
            (3): DualSepConv(
              (op_a): SepConv(
                (op): Sequential(
                  (0): ReLU()
                  (1): Conv2d(32, 32, kernel_size=(5, 5), stride=(1, 1), padding=(2, 2), groups=32, bias=False)
                  (2): Conv2d(32, 32, kernel_size=(1, 1), stride=(1, 1))
                  (3): BatchNorm2d(32, eps=1e-05, momentum=0.1, affine=False, track_running_stats=True)
                )
              )
              (op_b): SepConv(
                (op): Sequential(
                  (0): ReLU()
                  (1): Conv2d(32, 32, kernel_size=(5, 5), stride=(1, 1), padding=(2, 2), groups=32, bias=False)
                  (2): Conv2d(32, 32, kernel_size=(1, 1), stride=(1, 1))
                  (3): BatchNorm2d(32, eps=1e-05, momentum=0.1, affine=False, track_running_stats=True)
                )
              )
            )
            (4): SepConv(
              (op): Sequential(
                (0): ReLU()
                (1): Conv2d(32, 32, kernel_size=(3, 3), stride=(1, 1), padding=(2, 2), dilation=(2, 2), groups=32, bias=False)
                (2): Conv2d(32, 32, kernel_size=(1, 1), stride=(1, 1))
                (3): BatchNorm2d(32, eps=1e-05, momentum=0.1, affine=False, track_running_stats=True)
              )
            )
            (5): SepConv(
              (op): Sequential(
                (0): ReLU()
…
                (0): ReLU()
                (1): Conv2d(64, 64, kernel_size=(5, 5), stride=(1, 1), padding=(4, 4), dilation=(2, 2), groups=64, bias=False)
                (2): Conv2d(64, 64, kernel_size=(1, 1), stride=(1, 1))
                (3): BatchNorm2d(64, eps=1e-05, momentum=0.1, affine=False, track_running_stats=True)
              )
            )
            (6): POOLING(
              (op): AvgPool2d(kernel_size=3, stride=1, padding=1)
            )
            (7): POOLING(
              (op): MaxPool2d(kernel_size=3, stride=1, padding=1, dilation=1, ceil_mode=False)
            )
          )
        )
        (3<-3): MixedOp(
          (_ops): ModuleList(
            (0): Zero(C_in=64, C_out=64, stride=1)
            (1): Identity()
            (2): DualSepConv(
              (op_a): SepConv(
                (op): Sequential(
                  (0): ReLU()
                  (1): Conv2d(64, 64, kernel_size=(3, 3), stride=(1, 1), padding=(1, 1), groups=64, bias=False)
                  (2): Conv2d(64, 64, kernel_size=(1, 1), stride=(1, 1))
                  (3): BatchNorm2d(64, eps=1e-05, momentum=0.1, affine=False, track_running_stats=True)
                )
              )
              (op_b): SepConv(
                (op): Sequential(
                  (0): ReLU()
                  (1): Conv2d(64, 64, kernel_size=(3, 3), stride=(1, 1), padding=(1, 1), groups=64, bias=False)
                  (2): Conv2d(64, 64, kernel_size=(1, 1), stride=(1, 1))
                  (3): BatchNorm2d(64, eps=1e-05, momentum=0.1, affine=False, track_running_stats=True)
                )
              )
            )
            (3): DualSepConv(
              (op_a): SepConv(
                (op): Sequential(
                  (0): ReLU()
                  (1): Conv2d(64, 64, kernel_size=(5, 5), stride=(1, 1), padding=(2, 2), groups=64, bias=False)
                  (2): Conv2d(64, 64, kernel_size=(1, 1), stride=(1, 1))
                  (3): BatchNorm2d(64, eps=1e-05, momentum=0.1, affine=False, track_running_stats=True)
                )
              )
              (op_b): SepConv(
                (op): Sequential(
                  (0): ReLU()
                  (1): Conv2d(64, 64, kernel_size=(5, 5), stride=(1, 1), padding=(2, 2), groups=64, bias=False)
                  (2): Conv2d(64, 64, kernel_size=(1, 1), stride=(1, 1))
                  (3): BatchNorm2d(64, eps=1e-05, momentum=0.1, affine=False, track_running_stats=True)
                )
              )
            )
            (4): SepConv(
              (op): Sequential(
                (0): ReLU()
                (1): Conv2d(64, 64, kernel_size=(3, 3), stride=(1, 1), padding=(2, 2), dilation=(2, 2), groups=64, bias=False)
                (2): Conv2d(64, 64, kernel_size=(1, 1), stride=(1, 1))
                (3): BatchNorm2d(64, eps=1e-05, momentum=0.1, affine=False, track_running_stats=True)
              )
            )
            (5): SepConv(
              (op): Sequential(
                (0): ReLU()
                (1): Conv2d(64, 64, kernel_size=(5, 5), stride=(1, 1), padding=(4, 4), dilation=(2, 2), groups=64, bias=False)
                (2): Conv2d(64, 64, kernel_size=(1, 1), stride=(1, 1))
                (3): BatchNorm2d(64, eps=1e-05, momentum=0.1, affine=False, track_running_stats=True)
              )
            )
            (6): POOLING(
              (op): AvgPool2d(kernel_size=3, stride=1, padding=1)
            )
            (7): POOLING(
              (op): MaxPool2d(kernel_size=3, stride=1, padding=1, dilation=1, ceil_mode=False)
            )
          )
        )
        (3<-4): MixedOp(
          (_ops): ModuleList(
            (0): Zero(C_in=64, C_out=64, stride=1)
            (1): Identity()
            (2): DualSepConv(
              (op_a): SepConv(
                (op): Sequential(
                  (0): ReLU()
                  (1): Conv2d(64, 64, kernel_size=(3, 3), stride=(1, 1), padding=(1, 1), groups=64, bias=False)
                  (2): Conv2d(64, 64, kernel_size=(1, 1), stride=(1, 1))
                  (3): BatchNorm2d(64, eps=1e-05, momentum=0.1, affine=False, track_running_stats=True)
                )
              )
              (op_b): SepConv(
                (op): Sequential(
                  (0): ReLU()
                  (1): Conv2d(64, 64, kernel_size=(3, 3), stride=(1, 1), padding=(1, 1), groups=64, bias=False)
                  (2): Conv2d(64, 64, kernel_size=(1, 1), stride=(1, 1))
                  (3): BatchNorm2d(64, eps=1e-05, momentum=0.1, affine=False, track_running_stats=True)
                )
              )
            )
            (3): DualSepConv(
              (op_a): SepConv(
                (op): Sequential(
                  (0): ReLU()
                  (1): Conv2d(64, 64, kernel_size=(5, 5), stride=(1, 1), padding=(2, 2), groups=64, bias=False)
                  (2): Conv2d(64, 64, kernel_size=(1, 1), stride=(1, 1))
                  (3): BatchNorm2d(64, eps=1e-05, momentum=0.1, affine=False, track_running_stats=True)
                )
              )
              (op_b): SepConv(
                (op): Sequential(
                  (0): ReLU()
                  (1): Conv2d(64, 64, kernel_size=(5, 5), stride=(1, 1), padding=(2, 2), groups=64, bias=False)
                  (2): Conv2d(64, 64, kernel_size=(1, 1), stride=(1, 1))
                  (3): BatchNorm2d(64, eps=1e-05, momentum=0.1, affine=False, track_running_stats=True)
                )
              )
            )
            (4): SepConv(
              (op): Sequential(
                (0): ReLU()
                (1): Conv2d(64, 64, kernel_size=(3, 3), stride=(1, 1), padding=(2, 2), dilation=(2, 2), groups=64, bias=False)
                (2): Conv2d(64, 64, kernel_size=(1, 1), stride=(1, 1))
                (3): BatchNorm2d(64, eps=1e-05, momentum=0.1, affine=False, track_running_stats=True)
              )
            )
            (5): SepConv(
              (op): Sequential(
                (0): ReLU()
                (1): Conv2d(64, 64, kernel_size=(5, 5), stride=(1, 1), padding=(4, 4), dilation=(2, 2), groups=64, bias=False)
                (2): Conv2d(64, 64, kernel_size=(1, 1), stride=(1, 1))
                (3): BatchNorm2d(64, eps=1e-05, momentum=0.1, affine=False, track_running_stats=True)
              )
            )
            (6): POOLING(
              (op): AvgPool2d(kernel_size=3, stride=1, padding=1)
            )
            (7): POOLING(
              (op): MaxPool2d(kernel_size=3, stride=1, padding=1, dilation=1, ceil_mode=False)
            )
          )
        )
      )
    )
    (5): NASNetSearchCell(
      (preprocess0): FactorizedReduce(
        C_in=128, C_out=64, stride=2
        (relu): ReLU()
        (convs): ModuleList(
          (0): Conv2d(128, 32, kernel_size=(1, 1), stride=(2, 2))
          (1): Conv2d(128, 32, kernel_size=(1, 1), stride=(2, 2))
        )
        (pad): ConstantPad2d(padding=(0, 1, 0, 1), value=0)
        (bn): BatchNorm2d(64, eps=1e-05, momentum=0.1, affine=False, track_running_stats=True)
      )
      (preprocess1): ReLUConvBN(
        (op): Sequential(
          (0): ReLU()
          (1): Conv2d(256, 64, kernel_size=(1, 1), stride=(1, 1))
          (2): BatchNorm2d(64, eps=1e-05, momentum=0.1, affine=False, track_running_stats=True)
        )
      )
      (_ops): ModuleList()
      (edges): ModuleDict(
        (0<-0): MixedOp(
          (_ops): ModuleList(
            (0): Zero(C_in=64, C_out=64, stride=1)
            (1): Identity()
            (2): DualSepConv(
              (op_a): SepConv(
                (op): Sequential(
                  (0): ReLU()
                  (1): Conv2d(64, 64, kernel_size=(3, 3), stride=(1, 1), padding=(1, 1), groups=64, bias=False)
                  (2): Conv2d(64, 64, kernel_size=(1, 1), stride=(1, 1))
                  (3): BatchNorm2d(64, eps=1e-05, momentum=0.1, affine=False, track_running_stats=True)
                )
              )
              (op_b): SepConv(
                (op): Sequential(
                  (0): ReLU()
                  (1): Conv2d(64, 64, kernel_size=(3, 3), stride=(1, 1), padding=(1, 1), groups=64, bias=False)
                  (2): Conv2d(64, 64, kernel_size=(1, 1), stride=(1, 1))
                  (3): BatchNorm2d(64, eps=1e-05, momentum=0.1, affine=False, track_running_stats=True)
                )
              )
            )
            (3): DualSepConv(
              (op_a): SepConv(
                (op): Sequential(
                  (0): ReLU()
                  (1): Conv2d(64, 64, kernel_size=(5, 5), stride=(1, 1), padding=(2, 2), groups=64, bias=False)
                  (2): Conv2d(64, 64, kernel_size=(1, 1), stride=(1, 1))
                  (3): BatchNorm2d(64, eps=1e-05, momentum=0.1, affine=False, track_running_stats=True)
                )
              )
              (op_b): SepConv(
                (op): Sequential(
                  (0): ReLU()
                  (1): Conv2d(64, 64, kernel_size=(5, 5), stride=(1, 1), padding=(2, 2), groups=64, bias=False)
                  (2): Conv2d(64, 64, kernel_size=(1, 1), stride=(1, 1))
                  (3): BatchNorm2d(64, eps=1e-05, momentum=0.1, affine=False, track_running_stats=True)
                )
              )
            )
            (4): SepConv(
              (op): Sequential(
                (0): ReLU()
                (1): Conv2d(64, 64, kernel_size=(3, 3), stride=(1, 1), padding=(2, 2), dilation=(2, 2), groups=64, bias=False)
                (2): Conv2d(64, 64, kernel_size=(1, 1), stride=(1, 1))
                (3): BatchNorm2d(64, eps=1e-05, momentum=0.1, affine=False, track_running_stats=True)
              )
            )
            (5): SepConv(
              (op): Sequential(
                (0): ReLU()
                (1): Conv2d(64, 64, kernel_size=(5, 5), stride=(1, 1), padding=(4, 4), dilation=(2, 2), groups=64, bias=False)
                (2): Conv2d(64, 64, kernel_size=(1, 1), stride=(1, 1))
                (3): BatchNorm2d(64, eps=1e-05, momentum=0.1, affine=False, track_running_stats=True)
              )
            )
            (6): POOLING(
              (op): AvgPool2d(kernel_size=3, stride=1, padding=1)
            )
            (7): POOLING(
              (op): MaxPool2d(kernel_size=3, stride=1, padding=1, dilation=1, ceil_mode=False)
            )
          )
        )
        (0<-1): MixedOp(
          (_ops): ModuleList(
            (0): Zero(C_in=64, C_out=64, stride=1)
            (1): Identity()
            (2): DualSepConv(
              (op_a): SepConv(
                (op): Sequential(
                  (0): ReLU()
                  (1): Conv2d(64, 64, kernel_size=(3, 3), stride=(1, 1), padding=(1, 1), groups=64, bias=False)
                  (2): Conv2d(64, 64, kernel_size=(1, 1), stride=(1, 1))
                  (3): BatchNorm2d(64, eps=1e-05, momentum=0.1, affine=False, track_running_stats=True)
                )
              )
              (op_b): SepConv(
                (op): Sequential(
                  (0): ReLU()
                  (1): Conv2d(64, 64, kernel_size=(3, 3), stride=(1, 1), padding=(1, 1), groups=64, bias=False)
                  (2): Conv2d(64, 64, kernel_size=(1, 1), stride=(1, 1))
                  (3): BatchNorm2d(64, eps=1e-05, momentum=0.1, affine=False, track_running_stats=True)
                )
              )
            )
            (3): DualSepConv(
              (op_a): SepConv(
                (op): Sequential(
                  (0): ReLU()
                  (1): Conv2d(64, 64, kernel_size=(5, 5), stride=(1, 1), padding=(2, 2), groups=64, bias=False)
                  (2): Conv2d(64, 64, kernel_size=(1, 1), stride=(1, 1))
                  (3): BatchNorm2d(64, eps=1e-05, momentum=0.1, affine=False, track_running_stats=True)
                )
              )
              (op_b): SepConv(
                (op): Sequential(
                  (0): ReLU()
                  (1): Conv2d(64, 64, kernel_size=(5, 5), stride=(1, 1), padding=(2, 2), groups=64, bias=False)
                  (2): Conv2d(64, 64, kernel_size=(1, 1), stride=(1, 1))
                  (3): BatchNorm2d(64, eps=1e-05, momentum=0.1, affine=False, track_running_stats=True)
                )
              )
            )
            (4): SepConv(
              (op): Sequential(
                (0): ReLU()
                (1): Conv2d(64, 64, kernel_size=(3, 3), stride=(1, 1), padding=(2, 2), dilation=(2, 2), groups=64, bias=False)
                (2): Conv2d(64, 64, kernel_size=(1, 1), stride=(1, 1))
                (3): BatchNorm2d(64, eps=1e-05, momentum=0.1, affine=False, track_running_stats=True)
              )
            )
            (5): SepConv(
              (op): Sequential(
                (0): ReLU()
                (1): Conv2d(64, 64, kernel_size=(5, 5), stride=(1, 1), padding=(4, 4), dilation=(2, 2), groups=64, bias=False)
                (2): Conv2d(64, 64, kernel_size=(1, 1), stride=(1, 1))
                (3): BatchNorm2d(64, eps=1e-05, momentum=0.1, affine=False, track_running_stats=True)
              )
            )
            (6): POOLING(
              (op): AvgPool2d(kernel_size=3, stride=1, padding=1)
            )
            (7): POOLING(
              (op): MaxPool2d(kernel_size=3, stride=1, padding=1, dilation=1, ceil_mode=False)
            )
          )
        )
        (1<-0): MixedOp(
          (_ops): ModuleList(
            (0): Zero(C_in=64, C_out=64, stride=1)
            (1): Identity()
            (2): DualSepConv(
              (op_a): SepConv(
                (op): Sequential(
                  (0): ReLU()
                  (1): Conv2d(64, 64, kernel_size=(3, 3), stride=(1, 1), padding=(1, 1), groups=64, bias=False)
                  (2): Conv2d(64, 64, kernel_size=(1, 1), stride=(1, 1))
                  (3): BatchNorm2d(64, eps=1e-05, momentum=0.1, affine=False, track_running_stats=True)
                )
              )
              (op_b): SepConv(
                (op): Sequential(
                  (0): ReLU()
                  (1): Conv2d(64, 64, kernel_size=(3, 3), stride=(1, 1), padding=(1, 1), groups=64, bias=False)
                  (2): Conv2d(64, 64, kernel_size=(1, 1), stride=(1, 1))
                  (3): BatchNorm2d(64, eps=1e-05, momentum=0.1, affine=False, track_running_stats=True)
                )
              )
            )
            (3): DualSepConv(
              (op_a): SepConv(
                (op): Sequential(
                  (0): ReLU()
                  (1): Conv2d(64, 64, kernel_size=(5, 5), stride=(1, 1), padding=(2, 2), groups=64, bias=False)
                  (2): Conv2d(64, 64, kernel_size=(1, 1), stride=(1, 1))
                  (3): BatchNorm2d(64, eps=1e-05, momentum=0.1, affine=False, track_running_stats=True)
                )
              )
              (op_b): SepConv(
                (op): Sequential(
                  (0): ReLU()
                  (1): Conv2d(64, 64, kernel_size=(5, 5), stride=(1, 1), padding=(2, 2), groups=64, bias=False)
                  (2): Conv2d(64, 64, kernel_size=(1, 1), stride=(1, 1))
                  (3): BatchNorm2d(64, eps=1e-05, momentum=0.1, affine=False, track_running_stats=True)
                )
              )
            )
            (4): SepConv(
              (op): Sequential(
                (0): ReLU()
                (1): Conv2d(64, 64, kernel_size=(3, 3), stride=(1, 1), padding=(2, 2), dilation=(2, 2), groups=64, bias=False)
                (2): Conv2d(64, 64, kernel_size=(1, 1), stride=(1, 1))
                (3): BatchNorm2d(64, eps=1e-05, momentum=0.1, affine=False, track_running_stats=True)
              )
            )
            (5): SepConv(
              (op): Sequential(
                (0): ReLU()
                (1): Conv2d(64, 64, kernel_size=(5, 5), stride=(1, 1), padding=(4, 4), dilation=(2, 2), groups=64, bias=False)
                (2): Conv2d(64, 64, kernel_size=(1, 1), stride=(1, 1))
                (3): BatchNorm2d(64, eps=1e-05, momentum=0.1, affine=False, track_running_stats=True)
              )
            )
            (6): POOLING(
              (op): AvgPool2d(kernel_size=3, stride=1, padding=1)
            )
            (7): POOLING(
              (op): MaxPool2d(kernel_size=3, stride=1, padding=1, dilation=1, ceil_mode=False)
            )
          )
        )
        (1<-1): MixedOp(
          (_ops): ModuleList(
            (0): Zero(C_in=64, C_out=64, stride=1)
            (1): Identity()
            (2): DualSepConv(
              (op_a): SepConv(
                (op): Sequential(
                  (0): ReLU()
                  (1): Conv2d(64, 64, kernel_size=(3, 3), stride=(1, 1), padding=(1, 1), groups=64, bias=False)
                  (2): Conv2d(64, 64, kernel_size=(1, 1), stride=(1, 1))
                  (3): BatchNorm2d(64, eps=1e-05, momentum=0.1, affine=False, track_running_stats=True)
                )
              )
              (op_b): SepConv(
                (op): Sequential(
                  (0): ReLU()
                  (1): Conv2d(64, 64, kernel_size=(3, 3), stride=(1, 1), padding=(1, 1), groups=64, bias=False)
                  (2): Conv2d(64, 64, kernel_size=(1, 1), stride=(1, 1))
                  (3): BatchNorm2d(64, eps=1e-05, momentum=0.1, affine=False, track_running_stats=True)
                )
              )
            )
            (3): DualSepConv(
              (op_a): SepConv(
                (op): Sequential(
                  (0): ReLU()
                  (1): Conv2d(64, 64, kernel_size=(5, 5), stride=(1, 1), padding=(2, 2), groups=64, bias=False)
                  (2): Conv2d(64, 64, kernel_size=(1, 1), stride=(1, 1))
                  (3): BatchNorm2d(64, eps=1e-05, momentum=0.1, affine=False, track_running_stats=True)
                )
              )
              (op_b): SepConv(
                (op): Sequential(
                  (0): ReLU()
                  (1): Conv2d(64, 64, kernel_size=(5, 5), stride=(1, 1), padding=(2, 2), groups=64, bias=False)
                  (2): Conv2d(64, 64, kernel_size=(1, 1), stride=(1, 1))
                  (3): BatchNorm2d(64, eps=1e-05, momentum=0.1, affine=False, track_running_stats=True)
                )
              )
            )
            (4): SepConv(
              (op): Sequential(
                (0): ReLU()
                (1): Conv2d(64, 64, kernel_size=(3, 3), stride=(1, 1), padding=(2, 2), dilation=(2, 2), groups=64, bias=False)
                (2): Conv2d(64, 64, kernel_size=(1, 1), stride=(1, 1))
                (3): BatchNorm2d(64, eps=1e-05, momentum=0.1, affine=False, track_running_stats=True)
              )
            )
            (5): SepConv(
              (op): Sequential(
                (0): ReLU()
                (1): Conv2d(64, 64, kernel_size=(5, 5), stride=(1, 1), padding=(4, 4), dilation=(2, 2), groups=64, bias=False)
                (2): Conv2d(64, 64, kernel_size=(1, 1), stride=(1, 1))
                (3): BatchNorm2d(64, eps=1e-05, momentum=0.1, affine=False, track_running_stats=True)
              )
            )
            (6): POOLING(
              (op): AvgPool2d(kernel_size=3, stride=1, padding=1)
            )
            (7): POOLING(
              (op): MaxPool2d(kernel_size=3, stride=1, padding=1, dilation=1, ceil_mode=False)
            )
          )
        )
        (1<-2): MixedOp(
          (_ops): ModuleList(
            (0): Zero(C_in=64, C_out=64, stride=1)
            (1): Identity()
            (2): DualSepConv(
              (op_a): SepConv(
                (op): Sequential(
                  (0): ReLU()
                  (1): Conv2d(64, 64, kernel_size=(3, 3), stride=(1, 1), padding=(1, 1), groups=64, bias=False)
                  (2): Conv2d(64, 64, kernel_size=(1, 1), stride=(1, 1))
                  (3): BatchNorm2d(64, eps=1e-05, momentum=0.1, affine=False, track_running_stats=True)
                )
              )
              (op_b): SepConv(
                (op): Sequential(
                  (0): ReLU()
                  (1): Conv2d(64, 64, kernel_size=(3, 3), stride=(1, 1), padding=(1, 1), groups=64, bias=False)
                  (2): Conv2d(64, 64, kernel_size=(1, 1), stride=(1, 1))
                  (3): BatchNorm2d(64, eps=1e-05, momentum=0.1, affine=False, track_running_stats=True)
                )
              )
            )
            (3): DualSepConv(
              (op_a): SepConv(
                (op): Sequential(
                  (0): ReLU()
                  (1): Conv2d(64, 64, kernel_size=(5, 5), stride=(1, 1), padding=(2, 2), groups=64, bias=False)
                  (2): Conv2d(64, 64, kernel_size=(1, 1), stride=(1, 1))
                  (3): BatchNorm2d(64, eps=1e-05, momentum=0.1, affine=False, track_running_stats=True)
                )
              )
              (op_b): SepConv(
                (op): Sequential(
                  (0): ReLU()
                  (1): Conv2d(64, 64, kernel_size=(5, 5), stride=(1, 1), padding=(2, 2), groups=64, bias=False)
                  (2): Conv2d(64, 64, kernel_size=(1, 1), stride=(1, 1))
                  (3): BatchNorm2d(64, eps=1e-05, momentum=0.1, affine=False, track_running_stats=True)
                )
              )
            )
            (4): SepConv(
              (op): Sequential(
                (0): ReLU()
                (1): Conv2d(64, 64, kernel_size=(3, 3), stride=(1, 1), padding=(2, 2), dilation=(2, 2), groups=64, bias=False)
                (2): Conv2d(64, 64, kernel_size=(1, 1), stride=(1, 1))
                (3): BatchNorm2d(64, eps=1e-05, momentum=0.1, affine=False, track_running_stats=True)
              )
            )
            (5): SepConv(
              (op): Sequential(
                (0): ReLU()
                (1): Conv2d(64, 64, kernel_size=(5, 5), stride=(1, 1), padding=(4, 4), dilation=(2, 2), groups=64, bias=False)
                (2): Conv2d(64, 64, kernel_size=(1, 1), stride=(1, 1))
                (3): BatchNorm2d(64, eps=1e-05, momentum=0.1, affine=False, track_running_stats=True)
              )
            )
            (6): POOLING(
              (op): AvgPool2d(kernel_size=3, stride=1, padding=1)
            )
            (7): POOLING(
              (op): MaxPool2d(kernel_size=3, stride=1, padding=1, dilation=1, ceil_mode=False)
            )
          )
        )
        (2<-0): MixedOp(
          (_ops): ModuleList(
            (0): Zero(C_in=64, C_out=64, stride=1)
            (1): Identity()
            (2): DualSepConv(
              (op_a): SepConv(
                (op): Sequential(
                  (0): ReLU()
                  (1): Conv2d(64, 64, kernel_size=(3, 3), stride=(1, 1), padding=(1, 1), groups=64, bias=False)
                  (2): Conv2d(64, 64, kernel_size=(1, 1), stride=(1, 1))
                  (3): BatchNorm2d(64, eps=1e-05, momentum=0.1, affine=False, track_running_stats=True)
                )
              )
              (op_b): SepConv(
                (op): Sequential(
                  (0): ReLU()
                  (1): Conv2d(64, 64, kernel_size=(3, 3), stride=(1, 1), padding=(1, 1), groups=64, bias=False)
                  (2): Conv2d(64, 64, kernel_size=(1, 1), stride=(1, 1))
                  (3): BatchNorm2d(64, eps=1e-05, momentum=0.1, affine=False, track_running_stats=True)
                )
              )
            )
            (3): DualSepConv(
              (op_a): SepConv(
                (op): Sequential(
                  (0): ReLU()
                  (1): Conv2d(64, 64, kernel_size=(5, 5), stride=(1, 1), padding=(2, 2), groups=64, bias=False)
                  (2): Conv2d(64, 64, kernel_size=(1, 1), stride=(1, 1))
                  (3): BatchNorm2d(64, eps=1e-05, momentum=0.1, affine=False, track_running_stats=True)
                )
              )
              (op_b): SepConv(
                (op): Sequential(
                  (0): ReLU()
                  (1): Conv2d(64, 64, kernel_size=(5, 5), stride=(1, 1), padding=(2, 2), groups=64, bias=False)
                  (2): Conv2d(64, 64, kernel_size=(1, 1), stride=(1, 1))
                  (3): BatchNorm2d(64, eps=1e-05, momentum=0.1, affine=False, track_running_stats=True)
                )
              )
            )
            (4): SepConv(
              (op): Sequential(
                (0): ReLU()
                (1): Conv2d(64, 64, kernel_size=(3, 3), stride=(1, 1), padding=(2, 2), dilation=(2, 2), groups=64, bias=False)
                (2): Conv2d(64, 64, kernel_size=(1, 1), stride=(1, 1))
                (3): BatchNorm2d(64, eps=1e-05, momentum=0.1, affine=False, track_running_stats=True)
              )
            )
            (5): SepConv(
              (op): Sequential(
                (0): ReLU()
                (1): Conv2d(64, 64, kernel_size=(5, 5), stride=(1, 1), padding=(4, 4), dilation=(2, 2), groups=64, bias=False)
                (2): Conv2d(64, 64, kernel_size=(1, 1), stride=(1, 1))
                (3): BatchNorm2d(64, eps=1e-05, momentum=0.1, affine=False, track_running_stats=True)
              )
            )
            (6): POOLING(
              (op): AvgPool2d(kernel_size=3, stride=1, padding=1)
            )
            (7): POOLING(
              (op): MaxPool2d(kernel_size=3, stride=1, padding=1, dilation=1, ceil_mode=False)
            )
          )
        )
        (2<-1): MixedOp(
          (_ops): ModuleList(
            (0): Zero(C_in=64, C_out=64, stride=1)
            (1): Identity()
            (2): DualSepConv(
              (op_a): SepConv(
                (op): Sequential(
                  (0): ReLU()
                  (1): Conv2d(64, 64, kernel_size=(3, 3), stride=(1, 1), padding=(1, 1), groups=64, bias=False)
                  (2): Conv2d(64, 64, kernel_size=(1, 1), stride=(1, 1))
                  (3): BatchNorm2d(64, eps=1e-05, momentum=0.1, affine=False, track_running_stats=True)
                )
              )
              (op_b): SepConv(
                (op): Sequential(
                  (0): ReLU()
                  (1): Conv2d(64, 64, kernel_size=(3, 3), stride=(1, 1), padding=(1, 1), groups=64, bias=False)
                  (2): Conv2d(64, 64, kernel_size=(1, 1), stride=(1, 1))
                  (3): BatchNorm2d(64, eps=1e-05, momentum=0.1, affine=False, track_running_stats=True)
                )
              )
            )
            (3): DualSepConv(
              (op_a): SepConv(
                (op): Sequential(
                  (0): ReLU()
                  (1): Conv2d(64, 64, kernel_size=(5, 5), stride=(1, 1), padding=(2, 2), groups=64, bias=False)
                  (2): Conv2d(64, 64, kernel_size=(1, 1), stride=(1, 1))
                  (3): BatchNorm2d(64, eps=1e-05, momentum=0.1, affine=False, track_running_stats=True)
                )
              )
              (op_b): SepConv(
                (op): Sequential(
                  (0): ReLU()
                  (1): Conv2d(64, 64, kernel_size=(5, 5), stride=(1, 1), padding=(2, 2), groups=64, bias=False)
                  (2): Conv2d(64, 64, kernel_size=(1, 1), stride=(1, 1))
                  (3): BatchNorm2d(64, eps=1e-05, momentum=0.1, affine=False, track_running_stats=True)
                )
              )
            )
            (4): SepConv(
              (op): Sequential(
                (0): ReLU()
                (1): Conv2d(64, 64, kernel_size=(3, 3), stride=(1, 1), padding=(2, 2), dilation=(2, 2), groups=64, bias=False)
                (2): Conv2d(64, 64, kernel_size=(1, 1), stride=(1, 1))
                (3): BatchNorm2d(64, eps=1e-05, momentum=0.1, affine=False, track_running_stats=True)
              )
            )
            (5): SepConv(
              (op): Sequential(
                (0): ReLU()
                (1): Conv2d(64, 64, kernel_size=(5, 5), stride=(1, 1), padding=(4, 4), dilation=(2, 2), groups=64, bias=False)
                (2): Conv2d(64, 64, kernel_size=(1, 1), stride=(1, 1))
                (3): BatchNorm2d(64, eps=1e-05, momentum=0.1, affine=False, track_running_stats=True)
              )
            )
            (6): POOLING(
              (op): AvgPool2d(kernel_size=3, stride=1, padding=1)
            )
            (7): POOLING(
              (op): MaxPool2d(kernel_size=3, stride=1, padding=1, dilation=1, ceil_mode=False)
            )
          )
        )
        (2<-2): MixedOp(
          (_ops): ModuleList(
            (0): Zero(C_in=64, C_out=64, stride=1)
            (1): Identity()
            (2): DualSepConv(
              (op_a): SepConv(
                (op): Sequential(
                  (0): ReLU()
                  (1): Conv2d(64, 64, kernel_size=(3, 3), stride=(1, 1), padding=(1, 1), groups=64, bias=False)
                  (2): Conv2d(64, 64, kernel_size=(1, 1), stride=(1, 1))
                  (3): BatchNorm2d(64, eps=1e-05, momentum=0.1, affine=False, track_running_stats=True)
                )
              )
              (op_b): SepConv(
                (op): Sequential(
                  (0): ReLU()
                  (1): Conv2d(64, 64, kernel_size=(3, 3), stride=(1, 1), padding=(1, 1), groups=64, bias=False)
                  (2): Conv2d(64, 64, kernel_size=(1, 1), stride=(1, 1))
                  (3): BatchNorm2d(64, eps=1e-05, momentum=0.1, affine=False, track_running_stats=True)
                )
              )
            )
            (3): DualSepConv(
              (op_a): SepConv(
                (op): Sequential(
                  (0): ReLU()
                  (1): Conv2d(64, 64, kernel_size=(5, 5), stride=(1, 1), padding=(2, 2), groups=64, bias=False)
                  (2): Conv2d(64, 64, kernel_size=(1, 1), stride=(1, 1))
                  (3): BatchNorm2d(64, eps=1e-05, momentum=0.1, affine=False, track_running_stats=True)
                )
              )
              (op_b): SepConv(
                (op): Sequential(
                  (0): ReLU()
                  (1): Conv2d(64, 64, kernel_size=(5, 5), stride=(1, 1), padding=(2, 2), groups=64, bias=False)
                  (2): Conv2d(64, 64, kernel_size=(1, 1), stride=(1, 1))
                  (3): BatchNorm2d(64, eps=1e-05, momentum=0.1, affine=False, track_running_stats=True)
                )
              )
            )
            (4): SepConv(
              (op): Sequential(
                (0): ReLU()
                (1): Conv2d(64, 64, kernel_size=(3, 3), stride=(1, 1), padding=(2, 2), dilation=(2, 2), groups=64, bias=False)
                (2): Conv2d(64, 64, kernel_size=(1, 1), stride=(1, 1))
                (3): BatchNorm2d(64, eps=1e-05, momentum=0.1, affine=False, track_running_stats=True)
              )
            )
            (5): SepConv(
              (op): Sequential(
                (0): ReLU()
                (1): Conv2d(64, 64, kernel_size=(5, 5), stride=(1, 1), padding=(4, 4), dilation=(2, 2), groups=64, bias=False)
                (2): Conv2d(64, 64, kernel_size=(1, 1), stride=(1, 1))
                (3): BatchNorm2d(64, eps=1e-05, momentum=0.1, affine=False, track_running_stats=True)
              )
            )
            (6): POOLING(
              (op): AvgPool2d(kernel_size=3, stride=1, padding=1)
            )
            (7): POOLING(
              (op): MaxPool2d(kernel_size=3, stride=1, padding=1, dilation=1, ceil_mode=False)
            )
          )
        )
        (2<-3): MixedOp(
          (_ops): ModuleList(
            (0): Zero(C_in=64, C_out=64, stride=1)
            (1): Identity()
            (2): DualSepConv(
              (op_a): SepConv(
                (op): Sequential(
                  (0): ReLU()
                  (1): Conv2d(64, 64, kernel_size=(3, 3), stride=(1, 1), padding=(1, 1), groups=64, bias=False)
                  (2): Conv2d(64, 64, kernel_size=(1, 1), stride=(1, 1))
                  (3): BatchNorm2d(64, eps=1e-05, momentum=0.1, affine=False, track_running_stats=True)
                )
              )
              (op_b): SepConv(
                (op): Sequential(
                  (0): ReLU()
                  (1): Conv2d(64, 64, kernel_size=(3, 3), stride=(1, 1), padding=(1, 1), groups=64, bias=False)
                  (2): Conv2d(64, 64, kernel_size=(1, 1), stride=(1, 1))
                  (3): BatchNorm2d(64, eps=1e-05, momentum=0.1, affine=False, track_running_stats=True)
                )
              )
            )
            (3): DualSepConv(
              (op_a): SepConv(
                (op): Sequential(
                  (0): ReLU()
                  (1): Conv2d(64, 64, kernel_size=(5, 5), stride=(1, 1), padding=(2, 2), groups=64, bias=False)
                  (2): Conv2d(64, 64, kernel_size=(1, 1), stride=(1, 1))
                  (3): BatchNorm2d(64, eps=1e-05, momentum=0.1, affine=False, track_running_stats=True)
                )
              )
              (op_b): SepConv(
                (op): Sequential(
                  (0): ReLU()
                  (1): Conv2d(64, 64, kernel_size=(5, 5), stride=(1, 1), padding=(2, 2), groups=64, bias=False)
                  (2): Conv2d(64, 64, kernel_size=(1, 1), stride=(1, 1))
                  (3): BatchNorm2d(64, eps=1e-05, momentum=0.1, affine=False, track_running_stats=True)
                )
              )
            )
            (4): SepConv(
              (op): Sequential(
                (0): ReLU()
                (1): Conv2d(64, 64, kernel_size=(3, 3), stride=(1, 1), padding=(2, 2), dilation=(2, 2), groups=64, bias=False)
                (2): Conv2d(64, 64, kernel_size=(1, 1), stride=(1, 1))
                (3): BatchNorm2d(64, eps=1e-05, momentum=0.1, affine=False, track_running_stats=True)
              )
            )
            (5): SepConv(
              (op): Sequential(
                (0): ReLU()
                (1): Conv2d(64, 64, kernel_size=(5, 5), stride=(1, 1), padding=(4, 4), dilation=(2, 2), groups=64, bias=False)
                (2): Conv2d(64, 64, kernel_size=(1, 1), stride=(1, 1))
                (3): BatchNorm2d(64, eps=1e-05, momentum=0.1, affine=False, track_running_stats=True)
              )
            )
            (6): POOLING(
              (op): AvgPool2d(kernel_size=3, stride=1, padding=1)
            )
            (7): POOLING(
              (op): MaxPool2d(kernel_size=3, stride=1, padding=1, dilation=1, ceil_mode=False)
            )
          )
        )
        (3<-0): MixedOp(
          (_ops): ModuleList(
            (0): Zero(C_in=64, C_out=64, stride=1)
            (1): Identity()
            (2): DualSepConv(
              (op_a): SepConv(
                (op): Sequential(
                  (0): ReLU()
                  (1): Conv2d(64, 64, kernel_size=(3, 3), stride=(1, 1), padding=(1, 1), groups=64, bias=False)
                  (2): Conv2d(64, 64, kernel_size=(1, 1), stride=(1, 1))
                  (3): BatchNorm2d(64, eps=1e-05, momentum=0.1, affine=False, track_running_stats=True)
                )
              )
              (op_b): SepConv(
                (op): Sequential(
                  (0): ReLU()
                  (1): Conv2d(64, 64, kernel_size=(3, 3), stride=(1, 1), padding=(1, 1), groups=64, bias=False)
                  (2): Conv2d(64, 64, kernel_size=(1, 1), stride=(1, 1))
                  (3): BatchNorm2d(64, eps=1e-05, momentum=0.1, affine=False, track_running_stats=True)
                )
              )
            )
            (3): DualSepConv(
              (op_a): SepConv(
                (op): Sequential(
                  (0): ReLU()
                  (1): Conv2d(64, 64, kernel_size=(5, 5), stride=(1, 1), padding=(2, 2), groups=64, bias=False)
                  (2): Conv2d(64, 64, kernel_size=(1, 1), stride=(1, 1))
                  (3): BatchNorm2d(64, eps=1e-05, momentum=0.1, affine=False, track_running_stats=True)
                )
              )
              (op_b): SepConv(
                (op): Sequential(
                  (0): ReLU()
                  (1): Conv2d(64, 64, kernel_size=(5, 5), stride=(1, 1), padding=(2, 2), groups=64, bias=False)
                  (2): Conv2d(64, 64, kernel_size=(1, 1), stride=(1, 1))
                  (3): BatchNorm2d(64, eps=1e-05, momentum=0.1, affine=False, track_running_stats=True)
                )
              )
            )
            (4): SepConv(
              (op): Sequential(
                (0): ReLU()
                (1): Conv2d(64, 64, kernel_size=(3, 3), stride=(1, 1), padding=(2, 2), dilation=(2, 2), groups=64, bias=False)
                (2): Conv2d(64, 64, kernel_size=(1, 1), stride=(1, 1))
                (3): BatchNorm2d(64, eps=1e-05, momentum=0.1, affine=False, track_running_stats=True)
              )
            )
            (5): SepConv(
              (op): Sequential(
                (0): ReLU()
                (1): Conv2d(64, 64, kernel_size=(5, 5), stride=(1, 1), padding=(4, 4), dilation=(2, 2), groups=64, bias=False)
                (2): Conv2d(64, 64, kernel_size=(1, 1), stride=(1, 1))
                (3): BatchNorm2d(64, eps=1e-05, momentum=0.1, affine=False, track_running_stats=True)
              )
            )
            (6): POOLING(
              (op): AvgPool2d(kernel_size=3, stride=1, padding=1)
            )
            (7): POOLING(
              (op): MaxPool2d(kernel_size=3, stride=1, padding=1, dilation=1, ceil_mode=False)
            )
          )
        )
        (3<-1): MixedOp(
          (_ops): ModuleList(
            (0): Zero(C_in=64, C_out=64, stride=1)
            (1): Identity()
            (2): DualSepConv(
              (op_a): SepConv(
                (op): Sequential(
                  (0): ReLU()
                  (1): Conv2d(64, 64, kernel_size=(3, 3), stride=(1, 1), padding=(1, 1), groups=64, bias=False)
                  (2): Conv2d(64, 64, kernel_size=(1, 1), stride=(1, 1))
                  (3): BatchNorm2d(64, eps=1e-05, momentum=0.1, affine=False, track_running_stats=True)
                )
              )
              (op_b): SepConv(
                (op): Sequential(
                  (0): ReLU()
                  (1): Conv2d(64, 64, kernel_size=(3, 3), stride=(1, 1), padding=(1, 1), groups=64, bias=False)
                  (2): Conv2d(64, 64, kernel_size=(1, 1), stride=(1, 1))
                  (3): BatchNorm2d(64, eps=1e-05, momentum=0.1, affine=False, track_running_stats=True)
                )
              )
            )
            (3): DualSepConv(
              (op_a): SepConv(
                (op): Sequential(
                  (0): ReLU()
                  (1): Conv2d(64, 64, kernel_size=(5, 5), stride=(1, 1), padding=(2, 2), groups=64, bias=False)
                  (2): Conv2d(64, 64, kernel_size=(1, 1), stride=(1, 1))
                  (3): BatchNorm2d(64, eps=1e-05, momentum=0.1, affine=False, track_running_stats=True)
                )
              )
              (op_b): SepConv(
                (op): Sequential(
                  (0): ReLU()
                  (1): Conv2d(64, 64, kernel_size=(5, 5), stride=(1, 1), padding=(2, 2), groups=64, bias=False)
                  (2): Conv2d(64, 64, kernel_size=(1, 1), stride=(1, 1))
                  (3): BatchNorm2d(64, eps=1e-05, momentum=0.1, affine=False, track_running_stats=True)
                )
              )
            )
            (4): SepConv(
              (op): Sequential(
                (0): ReLU()
                (1): Conv2d(64, 64, kernel_size=(3, 3), stride=(1, 1), padding=(2, 2), dilation=(2, 2), groups=64, bias=False)
                (2): Conv2d(64, 64, kernel_size=(1, 1), stride=(1, 1))
                (3): BatchNorm2d(64, eps=1e-05, momentum=0.1, affine=False, track_running_stats=True)
              )
            )
            (5): SepConv(
              (op): Sequential(
                (0): ReLU()
                (1): Conv2d(64, 64, kernel_size=(5, 5), stride=(1, 1), padding=(4, 4), dilation=(2, 2), groups=64, bias=False)
                (2): Conv2d(64, 64, kernel_size=(1, 1), stride=(1, 1))
                (3): BatchNorm2d(64, eps=1e-05, momentum=0.1, affine=False, track_running_stats=True)
              )
            )
            (6): POOLING(
              (op): AvgPool2d(kernel_size=3, stride=1, padding=1)
            )
            (7): POOLING(
              (op): MaxPool2d(kernel_size=3, stride=1, padding=1, dilation=1, ceil_mode=False)
            )
          )
        )
        (3<-2): MixedOp(
          (_ops): ModuleList(
            (0): Zero(C_in=64, C_out=64, stride=1)
            (1): Identity()
            (2): DualSepConv(
              (op_a): SepConv(
                (op): Sequential(
                  (0): ReLU()
                  (1): Conv2d(64, 64, kernel_size=(3, 3), stride=(1, 1), padding=(1, 1), groups=64, bias=False)
                  (2): Conv2d(64, 64, kernel_size=(1, 1), stride=(1, 1))
                  (3): BatchNorm2d(64, eps=1e-05, momentum=0.1, affine=False, track_running_stats=True)
                )
              )
              (op_b): SepConv(
                (op): Sequential(
                  (0): ReLU()
                  (1): Conv2d(64, 64, kernel_size=(3, 3), stride=(1, 1), padding=(1, 1), groups=64, bias=False)
                  (2): Conv2d(64, 64, kernel_size=(1, 1), stride=(1, 1))
                  (3): BatchNorm2d(64, eps=1e-05, momentum=0.1, affine=False, track_running_stats=True)
                )
              )
            )
            (3): DualSepConv(
              (op_a): SepConv(
                (op): Sequential(
                  (0): ReLU()
                  (1): Conv2d(64, 64, kernel_size=(5, 5), stride=(1, 1), padding=(2, 2), groups=64, bias=False)
                  (2): Conv2d(64, 64, kernel_size=(1, 1), stride=(1, 1))
                  (3): BatchNorm2d(64, eps=1e-05, momentum=0.1, affine=False, track_running_stats=True)
                )
              )
              (op_b): SepConv(
                (op): Sequential(
                  (0): ReLU()
                  (1): Conv2d(64, 64, kernel_size=(5, 5), stride=(1, 1), padding=(2, 2), groups=64, bias=False)
                  (2): Conv2d(64, 64, kernel_size=(1, 1), stride=(1, 1))
                  (3): BatchNorm2d(64, eps=1e-05, momentum=0.1, affine=False, track_running_stats=True)
                )
              )
            )
            (4): SepConv(
              (op): Sequential(
                (0): ReLU()
                (1): Conv2d(64, 64, kernel_size=(3, 3), stride=(1, 1), padding=(2, 2), dilation=(2, 2), groups=64, bias=False)
                (2): Conv2d(64, 64, kernel_size=(1, 1), stride=(1, 1))
                (3): BatchNorm2d(64, eps=1e-05, momentum=0.1, affine=False, track_running_stats=True)
              )
            )
            (5): SepConv(
              (op): Sequential(
                (0): ReLU()
                (1): Conv2d(64, 64, kernel_size=(5, 5), stride=(1, 1), padding=(4, 4), dilation=(2, 2), groups=64, bias=False)
                (2): Conv2d(64, 64, kernel_size=(1, 1), stride=(1, 1))
                (3): BatchNorm2d(64, eps=1e-05, momentum=0.1, affine=False, track_running_stats=True)
              )
            )
            (6): POOLING(
              (op): AvgPool2d(kernel_size=3, stride=1, padding=1)
            )
            (7): POOLING(
              (op): MaxPool2d(kernel_size=3, stride=1, padding=1, dilation=1, ceil_mode=False)
            )
          )
        )
        (3<-3): MixedOp(
          (_ops): ModuleList(
            (0): Zero(C_in=64, C_out=64, stride=1)
            (1): Identity()
            (2): DualSepConv(
              (op_a): SepConv(
                (op): Sequential(
                  (0): ReLU()
                  (1): Conv2d(64, 64, kernel_size=(3, 3), stride=(1, 1), padding=(1, 1), groups=64, bias=False)
                  (2): Conv2d(64, 64, kernel_size=(1, 1), stride=(1, 1))
                  (3): BatchNorm2d(64, eps=1e-05, momentum=0.1, affine=False, track_running_stats=True)
                )
              )
              (op_b): SepConv(
                (op): Sequential(
                  (0): ReLU()
                  (1): Conv2d(64, 64, kernel_size=(3, 3), stride=(1, 1), padding=(1, 1), groups=64, bias=False)
                  (2): Conv2d(64, 64, kernel_size=(1, 1), stride=(1, 1))
                  (3): BatchNorm2d(64, eps=1e-05, momentum=0.1, affine=False, track_running_stats=True)
                )
              )
            )
            (3): DualSepConv(
              (op_a): SepConv(
                (op): Sequential(
                  (0): ReLU()
                  (1): Conv2d(64, 64, kernel_size=(5, 5), stride=(1, 1), padding=(2, 2), groups=64, bias=False)
                  (2): Conv2d(64, 64, kernel_size=(1, 1), stride=(1, 1))
                  (3): BatchNorm2d(64, eps=1e-05, momentum=0.1, affine=False, track_running_stats=True)
                )
              )
              (op_b): SepConv(
                (op): Sequential(
                  (0): ReLU()
                  (1): Conv2d(64, 64, kernel_size=(5, 5), stride=(1, 1), padding=(2, 2), groups=64, bias=False)
                  (2): Conv2d(64, 64, kernel_size=(1, 1), stride=(1, 1))
                  (3): BatchNorm2d(64, eps=1e-05, momentum=0.1, affine=False, track_running_stats=True)
                )
              )
            )
            (4): SepConv(
              (op): Sequential(
                (0): ReLU()
                (1): Conv2d(64, 64, kernel_size=(3, 3), stride=(1, 1), padding=(2, 2), dilation=(2, 2), groups=64, bias=False)
                (2): Conv2d(64, 64, kernel_size=(1, 1), stride=(1, 1))
                (3): BatchNorm2d(64, eps=1e-05, momentum=0.1, affine=False, track_running_stats=True)
              )
            )
            (5): SepConv(
              (op): Sequential(
                (0): ReLU()
                (1): Conv2d(64, 64, kernel_size=(5, 5), stride=(1, 1), padding=(4, 4), dilation=(2, 2), groups=64, bias=False)
                (2): Conv2d(64, 64, kernel_size=(1, 1), stride=(1, 1))
                (3): BatchNorm2d(64, eps=1e-05, momentum=0.1, affine=False, track_running_stats=True)
              )
            )
            (6): POOLING(
              (op): AvgPool2d(kernel_size=3, stride=1, padding=1)
            )
            (7): POOLING(
              (op): MaxPool2d(kernel_size=3, stride=1, padding=1, dilation=1, ceil_mode=False)
            )
          )
        )
        (3<-4): MixedOp(
          (_ops): ModuleList(
            (0): Zero(C_in=64, C_out=64, stride=1)
            (1): Identity()
            (2): DualSepConv(
              (op_a): SepConv(
                (op): Sequential(
                  (0): ReLU()
                  (1): Conv2d(64, 64, kernel_size=(3, 3), stride=(1, 1), padding=(1, 1), groups=64, bias=False)
                  (2): Conv2d(64, 64, kernel_size=(1, 1), stride=(1, 1))
                  (3): BatchNorm2d(64, eps=1e-05, momentum=0.1, affine=False, track_running_stats=True)
                )
              )
              (op_b): SepConv(
                (op): Sequential(
                  (0): ReLU()
                  (1): Conv2d(64, 64, kernel_size=(3, 3), stride=(1, 1), padding=(1, 1), groups=64, bias=False)
                  (2): Conv2d(64, 64, kernel_size=(1, 1), stride=(1, 1))
                  (3): BatchNorm2d(64, eps=1e-05, momentum=0.1, affine=False, track_running_stats=True)
                )
              )
            )
            (3): DualSepConv(
              (op_a): SepConv(
                (op): Sequential(
                  (0): ReLU()
                  (1): Conv2d(64, 64, kernel_size=(5, 5), stride=(1, 1), padding=(2, 2), groups=64, bias=False)
                  (2): Conv2d(64, 64, kernel_size=(1, 1), stride=(1, 1))
                  (3): BatchNorm2d(64, eps=1e-05, momentum=0.1, affine=False, track_running_stats=True)
                )
              )
              (op_b): SepConv(
                (op): Sequential(
                  (0): ReLU()
                  (1): Conv2d(64, 64, kernel_size=(5, 5), stride=(1, 1), padding=(2, 2), groups=64, bias=False)
                  (2): Conv2d(64, 64, kernel_size=(1, 1), stride=(1, 1))
                  (3): BatchNorm2d(64, eps=1e-05, momentum=0.1, affine=False, track_running_stats=True)
                )
              )
            )
            (4): SepConv(
              (op): Sequential(
                (0): ReLU()
                (1): Conv2d(64, 64, kernel_size=(3, 3), stride=(1, 1), padding=(2, 2), dilation=(2, 2), groups=64, bias=False)
                (2): Conv2d(64, 64, kernel_size=(1, 1), stride=(1, 1))
                (3): BatchNorm2d(64, eps=1e-05, momentum=0.1, affine=False, track_running_stats=True)
              )
            )
            (5): SepConv(
              (op): Sequential(
                (0): ReLU()
                (1): Conv2d(64, 64, kernel_size=(5, 5), stride=(1, 1), padding=(4, 4), dilation=(2, 2), groups=64, bias=False)
                (2): Conv2d(64, 64, kernel_size=(1, 1), stride=(1, 1))
                (3): BatchNorm2d(64, eps=1e-05, momentum=0.1, affine=False, track_running_stats=True)
              )
            )
            (6): POOLING(
              (op): AvgPool2d(kernel_size=3, stride=1, padding=1)
            )
            (7): POOLING(
              (op): MaxPool2d(kernel_size=3, stride=1, padding=1, dilation=1, ceil_mode=False)
            )
          )
        )
      )
    )
  )
  (lastact): Sequential(
    (0): BatchNorm2d(256, eps=1e-05, momentum=0.1, affine=True, track_running_stats=True)
    (1): ReLU(inplace=True)
  )
  (global_pooling): AdaptiveAvgPool2d(output_size=1)
  (classifier): Linear(in_features=256, out_features=10, bias=True)
)
model-config : Configure(super_type='nasnet-super', name='GDAS', C=16, N=2, steps=4, multiplier=4, stem_multiplier=3, num_classes=10, space=['none', 'skip_connect', 'dua_sepc_3x3', 'dua_sepc_5x5', 'dil_sepc_3x3', 'dil_sepc_5x5', 'avg_pool_3x3', 'max_pool_3x3'], affine=False, track_running_stats=True)
FLOP = 51.54 M, Params = 1.34 MB
search-space [8 ops] : ['none', 'skip_connect', 'dua_sepc_3x3', 'dua_sepc_5x5', 'dil_sepc_3x3', 'dil_sepc_5x5', 'avg_pool_3x3', 'max_pool_3x3']
…
